model.pt (torch, 792997 bytes, 12 tensors)

conv1.weight f4 [32, 1, 3, 3]
0	0xbea62d7d	-0.3245658
1	0x3de8667b	0.113476716
2	0xbc90df16	-0.0176845
3	0x3e836d9d	0.25669566
4	0xbe8c4081	-0.27392963
5	0xbe2c55eb	-0.1682965
6	0x3ca48aa6	0.020085644
7	0x3e29f40e	0.16597006
8	0xbe344868	-0.17605746
9	0xbe04b2a4	-0.12958771
10	0x3bed8789	0.007248823
11	0xbdc83d6f	-0.097773425
12	0x3d03d2ab	0.03218333
13	0x3c912e9a	0.017722417
14	0xbc7776ad	-0.015103978
15	0xbe24a859	-0.16079845
16	0xbd894af2	-0.06703748
17	0x3c811408	0.015756622
18	0x3d98a543	0.07453396
19	0x3d163591	0.03667218
20	0x3d15ffc0	0.036620855
21	0xbe63e97f	-0.2225704
22	0xbea9649f	-0.3308458
23	0x3dc0f9cf	0.09422647
24	0x3e67edcb	0.22649305
25	0x3d380e78	0.044935673
26	0xbe61dded	-0.22057314
27	0xbd48c1ff	-0.049013134
28	0xbdfb0a72	-0.12257852
29	0x3e0d23ef	0.13783239
30	0xbc81e417	-0.015855832
31	0xbe26540b	-0.16242997
32	0x3dd648ce	0.10463105
33	0xbe796699	-0.24355544
34	0xbd6bc5b2	-0.057561584
35	0xbda089c4	-0.07838777
36	0xbe91974b	-0.2843574
37	0x3de013e9	0.109412976
38	0xbe3d2f4e	-0.18475077
39	0x3e8a2773	0.26983222
40	0xbd86864c	-0.06568584
41	0xbda9d140	-0.082918644
42	0xbe509c42	-0.20372108
43	0xbc0d3882	-0.00861943
44	0x3def2e09	0.116787024
45	0x3e0882a7	0.1333109
46	0x3d811d0b	0.06304368
47	0xbe1ac6cb	-0.15114896
48	0xbe890df0	-0.26768446
49	0xbd6cf8d9	-0.057854507
50	0x3c65674f	0.0140016815
51	0xbcc9b1a1	-0.024620833
52	0xbdbc4b9e	-0.0919411
53	0x3da5f955	0.08104197
54	0xbd835d59	-0.06414289
55	0xbe56a3f1	-0.20960976
56	0x3e069a8c	0.13144892
57	0xbd2b8e7e	-0.041883938
58	0x3d92e57c	0.07172677
59	0xbdbe6167	-0.09295922
60	0x3d5b5471	0.053547326
61	0xbe76c2e1	-0.24097778
62	0xbd2cd5a9	-0.04219595
63	0xbe80d738	-0.251642
64	0x3db1e61b	0.08686467
65	0x3d5b02d2	0.053469487
66	0xbd40602a	-0.04696671
67	0x3b9396bf	0.0045040543
68	0xbe0ca2e4	-0.13734013
69	0x3e5bd75e	0.21468875
70	0xbe98421e	-0.29737943
71	0x3e011513	0.12605695
72	0x3de307c6	0.11085467
73	0xbcf94e2a	-0.03043278
74	0xbeb01d0b	-0.34397158
75	0x3dcdffae	0.10058533
76	0xbf13764d	-0.5760239
77	0x3d9e028d	0.0771533
78	0xbec39b8a	-0.38204604
79	0xbd0a0ca7	-0.033703472
80	0x3e0c38f6	0.13693604
81	0xbcae1fc4	-0.021255381
82	0x3b9e3f41	0.004829318
83	0x3b115401	0.0022175314
84	0x3d8b0e44	0.0678983
85	0xbdfeafba	-0.12435861
86	0xbc0984dc	-0.008393493
87	0x3e6539ed	0.22385378
88	0xbedfc90f	-0.43708083
89	0x3e8b0eec	0.27159822
90	0xb9f5fb51	-0.00046917287
91	0xbdc62d91	-0.0967666
92	0x3ba1753d	0.004927306
93	0x3da193e5	0.07889537
94	0xbc961309	-0.018319624
95	0xbdb15a92	-0.08659853
96	0xbe594cef	-0.21220754
97	0xbdf56377	-0.11981862
98	0x3d861dea	0.065486744
99	0xbe45944c	-0.19294852
100	0xbe39124f	-0.1807339
101	0xbd8e1737	-0.06938022
102	0x3d99b367	0.075049214
103	0xbe62717b	-0.22113602
104	0x3e9d39de	0.30708212
105	0x3d9e2b33	0.07723083
106	0x3e064c9d	0.13115163
107	0xbe9efb03	-0.31050882
108	0xbba7fa56	-0.005126278
109	0xbddc5738	-0.10758823
110	0xbe88acb3	-0.2669426
111	0x3e148d00	0.14506912
112	0xbd017d6f	-0.031613763
113	0x3ded1f02	0.1157818
114	0xbe0599f6	-0.13047013
115	0xbe53ade1	-0.20671798
116	0x3d9850db	0.07437297
117	0xbc51be2b	-0.012801687
118	0xbdea751d	-0.11448119
119	0xbe36e71f	-0.17861603
120	0x3c9c2891	0.019062312
121	0xbdf93f0b	-0.121702276
122	0x3e82f679	0.2557867
123	0xbea6281f	-0.32452485
124	0xbe867819	-0.26263502
125	0xbe19e1d5	-0.15027554
126	0x3d9364f2	0.07196988
127	0x3e362911	0.17789103
128	0xbe9b7616	-0.3036353
129	0x3c3db928	0.011579789
130	0x3e064fac	0.1311633
131	0xbe10187e	-0.14071843
132	0x3cda0dce	0.02661791
133	0x3d6504e7	0.05591288
134	0x3e42d9ae	0.1902835
135	0x3e95d4f8	0.29264045
136	0xbe111d67	-0.14171372
137	0x3e597978	0.21237743
138	0xbdfe485a	-0.12416144
139	0xbe945ce0	-0.28977108
140	0xbe1cf0b5	-0.15326197
141	0xbd1be73b	-0.038062315
142	0x3e40cbb3	0.18827705
143	0x3e2f8e6a	0.1714417
144	0x3e1d1988	0.1534177
145	0x3bd1b5d8	0.0063998513
146	0x3d4ac22c	0.049501583
147	0xbe88107c	-0.26575077
148	0x3ddba218	0.10724276
149	0x3d8fd570	0.07023132
150	0xbd8779a5	-0.06614999
151	0xbe6fbf73	-0.23412876
152	0x3e00ef44	0.12591273
153	0xbd2395d7	-0.03993782
154	0xbe6d8c4a	-0.23198047
155	0x3d37bea2	0.044859536
156	0xbca6e39f	-0.02037221
157	0x3e0a94de	0.13533351
158	0x39391c80	0.00017653592
159	0xbeb03074	-0.34411967
160	0x3e8551ec	0.26039064
161	0xbeccaf21	-0.39977363
162	0xbd24466b	-0.04010622
163	0x3d508774	0.05091043
164	0x3ddb8bc1	0.10720015
165	0x3db66e17	0.08907717
166	0x3d6b2e3d	0.057417143
167	0xbe4dd60f	-0.20101188
168	0x3df1f63c	0.118145436
169	0xbdbfdd11	-0.09368337
170	0xbea5b0c4	-0.32361424
171	0x3e5607e0	0.20901442
172	0xbe295d0b	-0.165394
173	0xbe6edb19	-0.23325767
174	0x3e6cb023	0.23114066
175	0xbeb7cd7e	-0.35898966
176	0xbd8994f6	-0.06717865
177	0xbe75604e	-0.23962519
178	0xbe15677d	-0.14590259
179	0x3d6ef468	0.058338553
180	0x3dbc6e01	0.09200669
181	0x3d276c92	0.040875025
182	0x3e0bb645	0.13643749
183	0xbe4cd4c0	-0.20003033
184	0x3d0a1ddb	0.03371988
185	0xbd651c72	-0.05593533
186	0xbdea6e52	-0.11446823
187	0xbe44755b	-0.19185393
188	0xbeb0c59d	-0.34525767
189	0x3e1ff8d3	0.15622263
190	0xbed221a2	-0.41041285
191	0xbda3975d	-0.07987855
192	0xbf04f3f3	-0.51934737
193	0x3e140bb6	0.14457592
194	0x3ca058db	0.01957362
195	0xbe2c1f30	-0.16808772
196	0xbe230466	-0.15919647
197	0x3e2f7ec4	0.17138201
198	0xbcf18b56	-0.029485386
199	0x3e28b783	0.16476254
200	0xbea13ea7	-0.31493112
201	0xbe88d64c	-0.26725996
202	0x3e0e483e	0.13894746
203	0x3e2a7691	0.16646792
204	0x3c85605a	0.016281296
205	0xbeb53310	-0.3539052
206	0xbe3d256d	-0.18471308
207	0x3a69dcc6	0.00089211424
208	0xbe0fab79	-0.14030255
209	0xbecfe4ec	-0.4060434
210	0xbedca014	-0.4309088
211	0x3e6bee4d	0.23040123
212	0x3d268164	0.04065074
213	0xbe53c5d3	-0.20680933
214	0xbd1f9e76	-0.03896948
215	0x3d0ad479	0.033894036
216	0xbd896dbe	-0.06710385
217	0xbddaf1e0	-0.10690665
218	0xbe116e3f	-0.14202212
219	0x3e4d3dac	0.20043057
220	0x3b8956ac	0.0041912403
221	0x3d16d005	0.036819477
222	0xbda7280a	-0.08161934
223	0xbe86cb1c	-0.26326835
224	0x3d8f8202	0.07007219
225	0x3e57d009	0.21075453
226	0xbe388dd1	-0.18022849
227	0xbd350af9	-0.044199917
228	0xbe89ec60	-0.26938152
229	0xbd675da9	-0.056485806
230	0x3e840b17	0.2578971
231	0x3da71932	0.081591025
232	0x3e33f756	0.1757482
233	0xbd618dac	-0.05506675
234	0xbe2d6301	-0.16932298
235	0x3e261ca8	0.16221869
236	0xbd073bcf	-0.033016022
237	0xbdc1bbfe	-0.09459685
238	0x3e4485de	0.19191691
239	0xbef1cd40	-0.47226906
240	0xbe18240f	-0.14857505
241	0xbe0a6bc2	-0.13517669
242	0x3e00f268	0.1259247
243	0xbe6e0942	-0.23245719
244	0xbe213986	-0.157446
245	0x3d06e1bb	0.032930117
246	0x3df04839	0.117325254
247	0x3d918509	0.071054526
248	0xbe0994fc	-0.1343574
249	0x39bcbdec	0.00035999657
250	0xbe4b8c55	-0.19877751
251	0xbc0f3140	-0.008739769
252	0x3e32bbd2	0.1745446
253	0x3db7adb2	0.089686766
254	0xbeca4c81	-0.39511493
255	0xbe3f5b58	-0.18687189

conv1.bias f4 [32]
0	0xbea18560	-0.3154707
1	0xbea32d71	-0.31870607
2	0xbee9a70a	-0.45635253
3	0xbe84c251	-0.25929502
4	0xbef9d619	-0.48796156
5	0xbeaa5f5e	-0.33275884
6	0xbf1c4f42	-0.6105844
7	0xbf1127e5	-0.567015
8	0xbec66e8c	-0.38756216
9	0xbf29e67c	-0.66367316
10	0xbef00b2f	-0.46883532
11	0xbed515b7	-0.4161813
12	0xbf045ead	-0.51706964
13	0xbeeffa70	-0.46870756
14	0xbf0a4b12	-0.540208
15	0xbee62e1f	-0.44957063
16	0xbec649dd	-0.38728228
17	0xbeb0d8bc	-0.34540355
18	0xbf1925b9	-0.59823185
19	0xbedddd06	-0.4333269
20	0xbe4f2528	-0.20229018
21	0xbebbae4a	-0.3665641
22	0xbed5129b	-0.41615757
23	0xbea3975d	-0.3195142
24	0xbf1c582b	-0.61072034
25	0xbea0f15c	-0.31434143
26	0xbe8b879f	-0.27251908
27	0xbe8bf6d2	-0.27336746
28	0xbec9f1c4	-0.39442265
29	0xbeecc52b	-0.46244177
30	0xbeba6828	-0.3640759
31	0xbd78440d	-0.060611773

conv2.weight f4 [32, 32, 3, 3]
0	0xbdbba736	-0.09162752
1	0xbe03b9cd	-0.12863846
2	0xbefc6a6e	-0.4929995
3	0xbca832b9	-0.020531999
4	0xbe265a5a	-0.16245404
5	0xbdf1b2c4	-0.11801675
6	0x3df0cf46	0.11758284
7	0xbde7ded3	-0.11321797
8	0x3cdf283a	0.027240861
9	0x3d6f3f9c	0.058410272
10	0x3de0d909	0.10978896
11	0xbcc936b4	-0.024562217
12	0x3d5ca8ca	0.053871907
13	0xbba20091	-0.004943915
14	0xbe84328b	-0.2581981
15	0xbe1ea3cc	-0.15492171
16	0xbe49e4e4	-0.19716221
17	0xbe9d3b0a	-0.30709106
18	0xbe2391d2	-0.15973595
19	0x3cd86899	0.026417064
20	0xbcf832d2	-0.03029767
21	0xbe114c90	-0.14189363
22	0x3df12d63	0.11776235
23	0xbc16cb42	-0.009203734
24	0x3e3522ee	0.17689106
25	0xbb94d632	-0.0045421356
26	0xbe689208	-0.22711957
27	0xbc0db8a5	-0.00864998
28	0xbe1f7370	-0.1557138
29	0xbdade320	-0.08490586
30	0x3d66aca1	0.056316976
31	0x3d225a16	0.039636694
32	0xbe4010ff	-0.18756483
33	0xbdb2bd63	-0.08727529
34	0x3e26b28d	0.16279049
35	0xbea3fecc	-0.32030332
36	0xbcecd488	-0.028909937
37	0xbd7425d1	-0.059606377
38	0xbe99e3a4	-0.3005649
39	0xbe744f58	-0.23858392
40	0xbe33df7a	-0.17565718
41	0xbe43a789	-0.19106878
42	0xbe46c689	-0.19411673
43	0xbbbb93cb	-0.0057244054
44	0x3e25b44d	0.1618206
45	0x3e2bf976	0.1679438
46	0xbceb7db0	-0.028746456
47	0xbcf9a233	-0.03047285
48	0xbe14c323	-0.14527564
49	0xbd7c963c	-0.061666712
50	0xbec440e9	-0.38330773
51	0xbdcfee88	-0.10152918
52	0xbeac7b44	-0.33687794
53	0x3cef47e3	0.029209083
54	0xbddb2b6f	-0.10701644
55	0x3d0e6269	0.03476182
56	0xbd123e53	-0.03570397
57	0x3e4606b9	0.19338502
58	0x3e17f053	0.1483777
59	0x3e35142c	0.17683476
60	0x3d883984	0.06651595
61	0x3d9ac9f8	0.07558054
62	0xbdc48bba	-0.09596963
63	0xbe511c4b	-0.20420949
64	0xbea10681	-0.31450275
65	0xbe58e718	-0.21181905
66	0xbdf32fa1	-0.11874319
67	0x3d3fe2bb	0.046847086
68	0x3e6daeb5	0.23211177
69	0xbd32cb09	-0.04365066
70	0x3e4eece3	0.20207553
71	0x3e49ea90	0.19718385
72	0x3bedc41c	0.007256044
73	0xbc467543	-0.012112918
74	0x3d93bb88	0.07213503
75	0xbd498ae3	-0.04920472
76	0x3bcb77fc	0.0062093716
77	0xbe3b3c34	-0.18284684
78	0x3e6820ea	0.22668806
79	0x3df75213	0.12076201
80	0x3d4fab01	0.05070019
81	0xbe6f94b7	-0.23396574
82	0x3d94f8f8	0.072740495
83	0x3da278f1	0.07933224
84	0xbe88def0	-0.26732588
85	0x3dfa82f4	0.122320086
86	0x3daf2514	0.08551994
87	0xbe86ca4d	-0.26326218
88	0x3d905ff6	0.07049553
89	0x3e3d60a2	0.18493894
90	0xbe7df51d	-0.24800535
91	0xbdb03748	-0.08604294
92	0xbe0bf0a8	-0.13666022
93	0xbe55b817	-0.20871006
94	0xbda36df6	-0.07979958
95	0xbd48fce3	-0.049069297
96	0xbd8c11d3	-0.06839337
97	0xbdc1d316	-0.094640896
98	0xbdb38981	-0.08766461
99	0xbca792da	-0.020455766
100	0xbe0213bf	-0.12702845
101	0xbea7d512	-0.32779747
102	0x3d931823	0.07182338
103	0x3d70399f	0.0586487
104	0xbe03ee98	-0.12883985
105	0x3e4ca07f	0.199831
106	0xbe68cc08	-0.22734082
107	0xbe90769e	-0.28215498
108	0xbdcaa1bc	-0.0989413
109	0x3ad4a8c1	0.0016224609
110	0xbe7c71d6	-0.246528
111	0xbdce18e4	-0.10063341
112	0xbdf9d367	-0.12198525
113	0xbeaa5960	-0.33271313
114	0xbe9c15cf	-0.3048539
115	0xbea88632	-0.32914883
116	0x3e624b3b	0.2209901
117	0xbdc06708	-0.09394652
118	0x3e5a68a5	0.21328981
119	0x3d5cc32c	0.053897068
120	0x3dbd0dfd	0.09231184
121	0x3e23e968	0.16007006
122	0x3cafb90c	0.021450542
123	0x3eb222a7	0.34792063
124	0x3df75204	0.1207619
125	0xbef976d4	-0.4872347
126	0xbdc16b77	-0.094443254
127	0x3dce4c0b	0.10073098
128	0xbe2253f6	-0.15852341
129	0x3d9ac352	0.07556786
130	0x3deb8cf9	0.11501498
131	0xbe273b3e	-0.16331193
132	0x3d9e8e9e	0.07742046
133	0x3c1578f1	0.009123073
134	0xbd8b91e8	-0.06814939
135	0x3df70c6a	0.12062915
136	0xbde3fc6a	-0.111321285
137	0xbe980214	-0.29689085
138	0xbd61dcb3	-0.055142116
139	0xbea948bd	-0.33063307
140	0xbec4c87f	-0.38434216
141	0xbd4d1465	-0.050068278
142	0xbe941273	-0.28920326
143	0xbddbbbff	-0.10729217
144	0x3dc90f6e	0.09817396
145	0xbe4bfed6	-0.19921431
146	0xbed9c03f	-0.42529485
147	0x3a9ea2f7	0.0012103011
148	0xbea1e897	-0.31622764
149	0xbef28cb1	-0.47372964
150	0x3dc9da2b	0.09856065
151	0xbef14712	-0.47124535
152	0xbe3547e9	-0.17703213
153	0x3d8dc6f2	0.069227114
154	0x3e36bddc	0.17845863
155	0x3e93703d	0.2879657
156	0x3e797433	0.24360733
157	0x3ecda42a	0.4016431
158	0x3d92930e	0.07156955
159	0x3e8f4975	0.2798573
160	0x3d82bae4	0.06383303
161	0xbe6940f3	-0.22778682
162	0xbcadd918	-0.021221682
163	0x3c3cc788	0.011522181
164	0xbe2c8627	-0.1684805
165	0xbca6552d	-0.020304287
166	0x3d7859be	0.06063246
167	0x3e6fd09d	0.23419423
168	0xbc871b39	-0.016492473
169	0x3e1c1c55	0.15245183
170	0x3e3310ee	0.17486927
171	0xbe96ac1f	-0.29428193
172	0x3e2a1995	0.16611321
173	0x3d9a943a	0.07547803
174	0xbe346f27	-0.17620526
175	0x3e3db04d	0.18524285
176	0x3e10a8df	0.14126919
177	0x3e14f9ef	0.14548467
178	0x3e20a21e	0.15686843
179	0x3e3bb733	0.18331604
180	0xbe8d6000	-0.27612305
181	0xbe900849	-0.2813132
182	0xbd4946dc	-0.049139842
183	0xbe8a3512	-0.26993614
184	0xbea34ee6	-0.31896132
185	0xbe1d4a7c	-0.15360445
186	0xbeb92488	-0.36160684
187	0xbea30a6c	-0.3184389
188	0xbdfd8fde	-0.12380956
189	0xbd957ab0	-0.072987914
190	0x3d97ccd2	0.07412113
191	0xbc896a67	-0.01677437
192	0xbd96d317	-0.07364481
193	0xbe51eb99	-0.2050003
194	0xbe84285d	-0.25812045
195	0xbea8a936	-0.32941598
196	0xbec79fc8	-0.3898909
197	0xbea1fd60	-0.31638622
198	0x3b380069	0.0028076416
199	0x3e841099	0.25793913
200	0x3cd8504a	0.026405472
201	0xbd89e945	-0.06733946
202	0x3dd4d6cc	0.10392532
203	0x3c5522c2	0.013008775
204	0x3d81c35d	0.06336091
205	0xbd8bd9aa	-0.068286255
206	0xbc8302b3	-0.015992498
207	0x3c807cbe	0.015684482
208	0x3e8a47d1	0.27007917
209	0xb9b0d75f	-0.000337298
210	0xbd9552a8	-0.07291156
211	0xbd3ecb3f	-0.04658055
212	0xbde71da0	-0.112849474
213	0xbe24e43e	-0.16102692
214	0x3d0b01b6	0.03393718
215	0xbe4d90ce	-0.2007477
216	0xbd905bbc	-0.07048747
217	0xbe5dc621	-0.21657611
218	0x3e4faae0	0.20280027
219	0xbea84053	-0.32861575
220	0xbe0c3885	-0.13693435
221	0x3e14e00a	0.14538589
222	0xbe8cf6fe	-0.2753219
223	0x3d95cbb3	0.07314243
224	0x3d559b7a	0.052150227
225	0x3d886301	0.066595085
226	0x3cfacdb2	0.030615661
227	0xbcd0017c	-0.025391333
228	0xbc87a9b2	-0.01656041
229	0xbe1ec09d	-0.15503164
230	0xbe454586	-0.19264802
231	0xbe07cd8d	-0.13262005
232	0xbe56fe47	-0.20995437
233	0xbf54aa3e	-0.8307227
234	0xbd8923c8	-0.06696278
235	0xbe1c49a3	-0.15262465
236	0xbe8c1c26	-0.27365226
237	0xbded46d1	-0.11585773
238	0x3df3b059	0.1189887
239	0xbcce2dd3	-0.025168335
240	0x3d867b62	0.06566502
241	0x3e3cf899	0.18454207
242	0x3ea9391f	0.33051392
243	0xbddc547f	-0.10758304
244	0xbc6a5696	-0.01430287
245	0xbe16c114	-0.14722091
246	0xbe3c0718	-0.18362081
247	0x3d32fb86	0.043696903
248	0x3d0f0a2c	0.03492181
249	0xbd8ca972	-0.06868257
250	0x3c896bbe	0.016775008
251	0xbd50f10d	-0.051011134
252	0x3db5d089	0.088776655
253	0xbe565073	-0.20929126
254	0xbcc000e1	-0.02343792
255	0xbed527b5	-0.41631857

conv2.bias f4 [32]
0	0x3dc359cf	0.09538614
1	0x3a7418d2	0.000931156
2	0xbc1582d8	-0.009125434
3	0xbcea4eb6	-0.028601985
4	0x3bd64e3d	0.0065400884
5	0xbdbf67a6	-0.09345941
6	0xbd35bbc9	-0.04436854
7	0xbb75c867	-0.0037503482
8	0xbd74cb39	-0.05976412
9	0xbd28ed4d	-0.041241933
10	0xbcb7ae2c	-0.022421919
11	0xbdb5dec0	-0.08880377
12	0x3dad1184	0.084506065
13	0x3e12328b	0.14277093
14	0x3d16e156	0.03683599
15	0x3da5f266	0.081028745
16	0x3d1f2f97	0.038863745
17	0x3d51d3fa	0.051227547
18	0x3c8d5ff3	0.017257666
19	0x3d50bac0	0.05095935
20	0xbd8868de	-0.06660627
21	0xbd929f5c	-0.07159302
22	0x3d6fbee4	0.058531657
23	0x3d10546d	0.035236765
24	0x3da7a7e2	0.08186318
25	0xbdcd8a74	-0.100361735
26	0x3b86b67e	0.00411111
27	0x3d3bc5c4	0.0458429
28	0xbcf71b2d	-0.030164326
29	0xbdacf5db	-0.08445331
30	0xbcd8d2fa	-0.026467789
31	0xbcc8681a	-0.024463702

conv3.weight f4 [64, 32, 3, 3]
0	0xbe6ff2a3	-0.23432402
1	0xbb3917a9	-0.0028242862
2	0x3cc6d360	0.024270713
3	0xbe474109	-0.19458403
4	0x3d0f282a	0.034950413
5	0xbe96e998	-0.29475093
6	0xbe815de0	-0.25266933
7	0xbdc4f024	-0.09616116
8	0xbce564fd	-0.028002257
9	0x3c23e4b1	0.010003255
10	0xbdcb18af	-0.099168174
11	0xbce05186	-0.027382623
12	0xbe06ec12	-0.13175991
13	0xbd22aebb	-0.039717417
14	0xbc808d2a	-0.015692312
15	0xbe03086c	-0.12796181
16	0x3e712706	0.23550043
17	0x3e9b1cd4	0.30295432
18	0xbe0ddde1	-0.13854171
19	0x3b88b99f	0.0041725184
20	0x3d37a77b	0.044837456
21	0xbe8b8b6e	-0.27254814
22	0x3cf3a472	0.0297415
23	0x3db247e8	0.08705121
24	0xbe877900	-0.26459503
25	0x3d771fe1	0.060333136
26	0x3ce85b14	0.028363742
27	0xbe96107f	-0.2930946
28	0xbe46f6d1	-0.1943009
29	0x3e2603c2	0.16212371
30	0xbe0dba5f	-0.13840626
31	0xbe47cc08	-0.19511425
32	0x3e0c8ed2	0.13726357
33	0xbe6b5b55	-0.22984059
34	0xbed7ac5a	-0.4212368
35	0xbc92bc2c	-0.017911993
36	0x3c922da8	0.017844036
37	0xbbc68d4c	-0.0060593244
38	0xbe4a7ace	-0.19773409
39	0xbe9bc7c3	-0.30425844
40	0xbe4cafe5	-0.19988973
41	0xbe42cf5d	-0.19024415
42	0xbe183e66	-0.14867553
43	0x3d8aedca	0.06783636
44	0x3e13a704	0.1441918
45	0x3e959016	0.2921149
46	0xbbc07adb	-0.0058740205
47	0x3d9b3428	0.075783074
48	0xbe25f554	-0.16206867
49	0x3da921d4	0.08258405
50	0xbe5a7979	-0.213354
51	0xbe9e8102	-0.309578
52	0xbdd227a2	-0.102614656
53	0xbcd397a1	-0.025829138
54	0x3e1f6ccf	0.15568851
55	0x3de60801	0.112319954
56	0x3e3330ce	0.17499086
57	0xbe619368	-0.22028887
58	0xbe3606da	-0.17776051
59	0xbe172e90	-0.14763856
60	0x3cf5bfdd	0.029998714
61	0xbe0d2961	-0.13785316
62	0xbe743382	-0.23847774
63	0xbe578eb2	-0.21050528
64	0x3d19ff4e	0.037596993
65	0x3dcdda24	0.10051373
66	0xbe2e5410	-0.17024255
67	0xbc61014a	-0.0137332175
68	0xbd8e57bc	-0.06950328
69	0xbea93bc0	-0.33053398
70	0xbe809d85	-0.25120178
71	0xbd74fdb8	-0.059812278
72	0xbea15857	-0.3151271
73	0xbead61e5	-0.3386375
74	0xbdb475b8	-0.088115156
75	0xbdbd5bc4	-0.092460185
76	0xbe8610bb	-0.2618464
77	0xbe208440	-0.1567545
78	0x3e06d8b5	0.13168605
79	0xbde4e5e1	-0.111766584
80	0xbe36dda2	-0.17857984
81	0xbe76ba05	-0.24094398
82	0x3e31f3d2	0.17378166
83	0x3dec3d84	0.11535171
84	0xbe45b04d	-0.19305535
85	0xbc3bcedf	-0.011462896
86	0xbe412a69	-0.18863834
87	0xbda018e0	-0.078172445
88	0xbe9e1748	-0.30877137
89	0xbea97426	-0.33096427
90	0xbead4c2f	-0.33847186
91	0xbdea5dd1	-0.11443675
92	0xbd9aeb8e	-0.0756446
93	0xbe870b9d	-0.26376048
94	0xbe34aed5	-0.17644818
95	0x3cbe6f2d	0.023246372
96	0xbe21f9db	-0.15817969
97	0xbd5f683a	-0.054542758
98	0xbe82f456	-0.2557704
99	0xbed5160e	-0.4161839
100	0xbe14c71a	-0.14529076
101	0xbe986b8f	-0.2976956
102	0xbd88fe06	-0.06689076
103	0xbd0b9a71	-0.034082834
104	0x3c3fbecb	0.011703203
105	0xbdbf70d9	-0.09347696
106	0xbe3beb9c	-0.18351597
107	0xbdf42dd6	-0.11922805
108	0xbdb52060	-0.08844066
109	0x3e11212b	0.14172809
110	0x3e375409	0.1790315
111	0xbe2fa24c	-0.17151755
112	0xbe1a7059	-0.1508192
113	0x3e3db9ba	0.1852788
114	0xbe34e3ff	-0.17665099
115	0xbeb97bc9	-0.36227253
116	0xbd7e659e	-0.06210863
117	0xbda88d9d	-0.082301356
118	0xbdac443f	-0.084114544
119	0xbe8768c5	-0.2644712
120	0x3e1fc5df	0.15602826
121	0x3e3a60f2	0.18201044
122	0xbcbb3d9f	-0.022856532
123	0xbd41d3b4	-0.047321036
124	0xbe5aedc6	-0.21379766
125	0xbf0583b0	-0.52154064
126	0xbe033b40	-0.12815571
127	0xbd8edb75	-0.06975452
128	0x3dcca9ef	0.0999335
129	0xbe1ec9da	-0.15506688
130	0xbddff5a7	-0.10935526
131	0xbd55d11e	-0.052201383
132	0xbedcf67e	-0.4315681
133	0xbea9a629	-0.33134583
134	0xbe9f2599	-0.31083372
135	0xbe1099c9	-0.14121164
136	0xbbd86781	-0.0066041355
137	0x3e6170fe	0.2201576
138	0xbc3d54b1	-0.011555837
139	0xbe2109ab	-0.15726344
140	0xbdc19262	-0.094517484
141	0xbe2ff1c6	-0.17182073
142	0xbdc892f5	-0.09793655
143	0xbe373afa	-0.17893592
144	0xbdc93f29	-0.098265
145	0xbc9a6256	-0.018845718
146	0xbd9d0d40	-0.07668543
147	0xbe9d1dc8	-0.30686784
148	0xbea8aa0b	-0.32942232
149	0xbe83b45d	-0.25723544
150	0xbe2d61cd	-0.1693184
151	0xbe8b4fc4	-0.27209294
152	0xbeb5884e	-0.35455555
153	0xbd6440d0	-0.055725873
154	0xbd36a85f	-0.044594165
155	0x3d81a400	0.06330109
156	0xbe0834c1	-0.13301374
157	0xbead44a5	-0.33841434
158	0xbecd6c54	-0.4012171
159	0x3de49a86	0.111622855
160	0xbddffc13	-0.10936751
161	0xbe473b15	-0.19456132
162	0xbe1d9912	-0.15390423
163	0xbe3d4ada	-0.18485585
164	0xbcaeb379	-0.021325814
165	0x3e5396fb	0.20663063
166	0x3da44279	0.08020491
167	0xbd6d2284	-0.057894245
168	0xbdeb27a4	-0.1148217
169	0xbe3ddc1e	-0.18541
170	0xbe2d3ef7	-0.1691855
171	0xbd48a41c	-0.048984632
172	0xbbb77cbb	-0.005599586
173	0x3e873a23	0.26411542
174	0x3dd3aa1d	0.10335181
175	0x3e1ee333	0.15516357
176	0x3c3545cb	0.011064003
177	0xbe904345	-0.28176323
178	0xbe45b71a	-0.19308129
179	0xbe9cb183	-0.3060418
180	0x3d8fe0bb	0.07025286
181	0x3e9c9b9a	0.30587465
182	0x3e5b8713	0.21438245
183	0xbe87be9b	-0.26512608
184	0xbeb5680c	-0.35430944
185	0xbcefb66a	-0.029261786
186	0xbc943c57	-0.018095179
187	0xbea58c9b	-0.32333836
188	0xbe11f7c7	-0.14254676
189	0xbd493963	-0.049126994
190	0x3bfae0e7	0.007656205
191	0xbcde626a	-0.027146537
192	0xbca4a3ae	-0.02009758
193	0xbe9abff0	-0.30224562
194	0x3d9ca7ef	0.07649218
195	0xbea66acf	-0.32503363
196	0xbd3fa4cd	-0.046788026
197	0xbd108f22	-0.035292752
198	0x3daf9b3e	0.08574532
199	0x3d991a41	0.07475711
200	0x3d2cb3bd	0.0421636
201	0xbe33dc2a	-0.17564455
202	0xbe16198e	-0.14658186
203	0x3d3c446c	0.04596369
204	0xbeafdc65	-0.34347835
205	0xbefbbee6	-0.4916908
206	0xbeba66b8	-0.36406493
207	0xbe0ef05c	-0.13958877
208	0xbd56a623	-0.052404534
209	0xbe41dd3e	-0.18932053
210	0xbe294191	-0.16528918
211	0xbda1d004	-0.07901004
212	0xbe418094	-0.18896705
213	0xbdb58fde	-0.08865331
214	0xbe2c5e89	-0.16832937
215	0x3ceb2848	0.028705731
216	0x3ce2d750	0.02769056
217	0xbdc72563	-0.09723928
218	0xbd7f9289	-0.062395606
219	0xbe5ef5c9	-0.21773447
220	0xbdf0bccc	-0.1175476
221	0x3da9cc47	0.08290916
222	0xbd8980b7	-0.067140035
223	0xbeb37eed	-0.35057774
224	0xbdda4584	-0.1065779
225	0xbe24aab4	-0.16080743
226	0xbe678fcd	-0.2261345
227	0x3d5cc2da	0.053896762
228	0x3da375d6	0.0798146
229	0x3a891130	0.0010457393
230	0xbda579a4	-0.08079842
231	0xbd5a1d28	-0.05325046
232	0x3d1ee227	0.038789894
233	0xbeb864e6	-0.3601448
234	0xbd38dd8e	-0.045133166
235	0xbc738f36	-0.014865687
236	0x3d8ff0a5	0.07028321
237	0xbe98fa83	-0.29878625
238	0xbe446ae5	-0.19181402
239	0xbdb35cb5	-0.08757917
240	0xbd10aaa6	-0.035318993
241	0xbd4f370a	-0.0505896
242	0x3ddfeb9d	0.109336115
243	0xbdc1931c	-0.09451887
244	0xbd9aca8e	-0.075581655
245	0x3dc00ee3	0.093778394
246	0xbe2dea9a	-0.16984025
247	0xbe2371c6	-0.1596137
248	0xbcd2cc95	-0.025732318
249	0xbef4b44d	-0.4779381
250	0xbe2b1a63	-0.16709284
251	0xbe072f4b	-0.13201635
252	0xbe050e36	-0.12993702
253	0xbde29f6f	-0.11065566
254	0x3c940cfa	0.018072594
255	0xbea11aab	-0.3146566

conv3.bias f4 [64]
0	0xbcd3d2aa	-0.025857288
1	0x3d0ec7eb	0.034858625
2	0xbdfc5f67	-0.12322884
3	0xbeb34c5d	-0.35019198
4	0xbd473f4c	-0.04864435
5	0xbe6d0143	-0.23145013
6	0x3ca881e0	0.020569742
7	0xbe221228	-0.15827239
8	0x3e32a5b4	0.17446023
9	0xbb98f839	-0.0046682623
10	0x3e263777	0.16232096
11	0xbe36c06e	-0.17846844
12	0x3e092194	0.13391715
13	0xbcc255c3	-0.023722535
14	0x3dbf84d1	0.093515046
15	0xbd9a5e22	-0.07537486
16	0xbe41281b	-0.18862955
17	0xbe499bfb	-0.19688408
18	0x3c367a44	0.011137549
19	0xbe1ced33	-0.1532486
20	0x3e7057a4	0.23470932
21	0xbde6a1dd	-0.11261342
22	0xbc092d9c	-0.0083726905
23	0xbdadece8	-0.08492452
24	0x3da07d2e	0.07836376
25	0xbdd1c2c3	-0.10242226
26	0xbe59f64c	-0.21285361
27	0xbe0c97b3	-0.13729744
28	0x3d7f818a	0.062379397
29	0xbd8c35f2	-0.06846227
30	0xbce817d7	-0.02833168
31	0x3e5594aa	0.20857492
32	0x3e035f9d	0.12829442
33	0xbd598a4b	-0.053110402
34	0x3ec80fd2	0.3907457
35	0x3e11be6e	0.142328
36	0xbdb2c504	-0.08728984
37	0x3d803cad	0.06261573
38	0x3ddf212b	0.10894998
39	0xbeb1ecb5	-0.34750906
40	0xbe01ea3b	-0.12687008
41	0xbd78aa99	-0.06070957
42	0x3c54a12c	0.0129778795
43	0xbe3a0c5b	-0.18168776
44	0xbeb1e229	-0.3474286
45	0xbe10cefb	-0.14141457
46	0xbe9e608d	-0.30933037
47	0xbdf5ac13	-0.11995711
48	0x3da95df2	0.08269872
49	0xbdb4768b	-0.08811673
50	0xbcc5bbe6	-0.024137449
51	0x3e12f281	0.1435032
52	0xbe60f606	-0.2196885
53	0xbe0e6e33	-0.13909225
54	0x3e3f11fc	0.18659204
55	0xbe35cfd7	-0.17755066
56	0xbd8f5308	-0.06998259
57	0x3e78707f	0.24261664
58	0xbd919414	-0.07108322
59	0xbca981fb	-0.020691862
60	0xbe0713e6	-0.13191184
61	0x3dc8c6fd	0.09803579
62	0xbe96e283	-0.2946969
63	0xbd8e5b7b	-0.06951042

conv4.weight f4 [64, 64, 3, 3]
0	0xbeb7f190	-0.35926485
1	0xbe4684f7	-0.1938666
2	0xbdfe0884	-0.12403968
3	0xbe287f28	-0.16454756
4	0xbe566f35	-0.2094086
5	0xbe22b3f9	-0.15888967
6	0x3ea52b8d	0.3225979
7	0x3e364637	0.17800222
8	0xbda1c88c	-0.078995794
9	0x3df8cf30	0.12148893
10	0x3d0d9339	0.03456423
11	0xbe93b8a8	-0.2885182
12	0x3d071e16	0.032987677
13	0xbe9052bb	-0.28188118
14	0xbdc031c7	-0.09384494
15	0xbe72c424	-0.23707634
16	0xbdb70b2f	-0.0893768
17	0x3e86ba60	0.26314068
18	0xbe179297	-0.14802013
19	0x3dcefa56	0.101063415
20	0x3da84b5c	0.08217499
21	0xbd1b965e	-0.0379852
22	0x3de4e346	0.111761615
23	0xbe4ee361	-0.20203926
24	0x3e3ee997	0.18643795
25	0x3e3deb32	0.18546751
26	0x3d89727d	0.0671129
27	0x3c53c8d9	0.012926304
28	0xbed5f857	-0.4179103
29	0xbf18d556	-0.59700525
30	0xbe535300	-0.2063713
31	0xbda55bc6	-0.08074145
32	0xbe778ecb	-0.24175565
33	0x3d47ba27	0.048761513
34	0x3e3f8b73	0.1870554
35	0xbbf23e36	-0.00739267
36	0x3d8b18b8	0.06791824
37	0x3d879236	0.066196844
38	0xbe294221	-0.16529132
39	0x3e1a6c25	0.15080316
40	0x3e51afa8	0.20477164
41	0xbd7f45e5	-0.062322516
42	0x3da8bd6a	0.08239253
43	0xbce0dc3a	-0.027448762
44	0x3d70e52d	0.05881231
45	0xbe5cd664	-0.21566159
46	0xbe0722f5	-0.13196929
47	0xbc228f3c	-0.009921845
48	0xbe13accc	-0.14421386
49	0xbe93d411	-0.2887273
50	0xbef540d8	-0.47901034
51	0x3ccb0b78	0.024785742
52	0xbc73df58	-0.014884792
53	0xbdb3a643	-0.08771946
54	0x3dbcdea5	0.092221536
55	0x3d910e50	0.07082808
56	0x3cc3f517	0.023920579
57	0xbe6ae5d2	-0.22939232
58	0xbe226182	-0.15857509
59	0xbe972342	-0.29519087
60	0xbdeda91c	-0.11604521
61	0xbd1636c8	-0.036673337
62	0x3e4b7650	0.19869351
63	0x3caaa611	0.02083114
64	0xbe725006	-0.23663339
65	0xbd9e9a87	-0.077443175
66	0x3d7a1683	0.061056625
67	0xbe36d780	-0.17855644
68	0x3e0f00a0	0.13965082
69	0xbdbd0065	-0.09228591
70	0x3e668751	0.22512557
71	0x3e0c760d	0.13716908
72	0x3b70b6a2	0.0036729951
73	0xbd3ff52b	-0.04686467
74	0x3d04ee16	0.03245362
75	0xbe02f51e	-0.12788817
76	0x3e2c9068	0.16851962
77	0x3c5067c4	0.012720052
78	0x3e5d9af6	0.21641144
79	0xbd008fcc	-0.031387135
80	0xbe4794c2	-0.1949034
81	0xbde0260b	-0.10944756
82	0xbb9da90b	-0.0048114113
83	0xbe990341	-0.29885295
84	0xbe85431a	-0.26027757
85	0xbed55cdb	-0.41672406
86	0xbe988118	-0.2978599
87	0x3de8e858	0.11372441
88	0x3e5661ff	0.2093582
89	0x3e33a560	0.17543554
90	0x3e459ce1	0.19298126
91	0x3e171600	0.14754486
92	0x3e5cb8f9	0.21554936
93	0xbe0e1b56	-0.13877615
94	0x3cf38192	0.02972487
95	0x3e31764c	0.17330283
96	0xbeac20e5	-0.33618847
97	0xbe13d90b	-0.14438264
98	0x3e7ce68b	0.2469732
99	0xbe03335a	-0.12812558
100	0xbe5c7243	-0.21527962
101	0x3dda3ffa	0.10656734
102	0xbc73d781	-0.014882923
103	0xbe075d4f	-0.13219188
104	0x3d70bb45	0.058772344
105	0xbdcf36b2	-0.10117854
106	0xba0670ee	-0.0005128522
107	0xbdc17e62	-0.09447934
108	0xbe068c72	-0.13139513
109	0xbce92ead	-0.02846464
110	0xbc996287	-0.01872374
111	0xbe6957a8	-0.22787344
112	0xbe447795	-0.19186242
113	0xbc0b3546	-0.008496588
114	0xbdd8b99b	-0.105822764
115	0xbd109292	-0.03529603
116	0xbdad8afb	-0.08473774
117	0x3cc60686	0.024173032
118	0xbeb754ea	-0.35806972
119	0xbebc3cdf	-0.3676519
120	0xbdafd039	-0.08584637
121	0x3da8e7b0	0.08247316
122	0x3dab0724	0.08350971
123	0xbe0fbf7c	-0.14037889
124	0x3ceb0d6c	0.028692923
125	0x3d00546d	0.031330515
126	0x3e767823	0.24069266
127	0x3d4e2513	0.050328325
128	0xbcf3b1ba	-0.029747833
129	0xbe7f5d9d	-0.24938054
130	0xbe98a25b	-0.29811367
131	0xbca654e2	-0.020304147
132	0xbe15f959	-0.146459
133	0xbd36b522	-0.044606335
134	0x3e15f886	0.14645585
135	0x3d84e221	0.06488443
136	0xbe3bf427	-0.18354855
137	0xbdf32805	-0.118728675
138	0xbdd24050	-0.10266173
139	0xbe63f26e	-0.22260448
140	0xbe4b45ac	-0.19850796
141	0xbe357432	-0.17720106
142	0xbcb5675c	-0.022144012
143	0x3e6c25be	0.23061273
144	0xbeb37c10	-0.3505559
145	0xbc86dcdd	-0.016462738
146	0x3dc9f24f	0.0986067
147	0xbcee6105	-0.029098997
148	0xbdf47cf2	-0.11937894
149	0xbe8eeddf	-0.27915856
150	0x3e92179f	0.28533646
151	0x3c9c9371	0.019113274
152	0xbe92092a	-0.28522617
153	0xbda18ab1	-0.078877814
154	0xbd86d1f8	-0.06583017
155	0xbe5a8ea3	-0.21343474
156	0x3e3e656d	0.18593378
157	0x3db1b856	0.086777374
158	0x3e3b480a	0.182892
159	0x3ead5722	0.3385554
160	0x3d058154	0.03259404
161	0xbe04ce9c	-0.1296944
162	0xbe1851f6	-0.14875016
163	0x3b5d856c	0.003380145
164	0xbe568756	-0.20950064
165	0x3c41f574	0.011838306
166	0x3e148164	0.14502484
167	0x3da6d26d	0.08145604
168	0xbda65f15	-0.08123604
169	0x3dd7d5d5	0.10538832
170	0xbd2ff3e6	-0.04295721
171	0xbee58273	-0.44826087
172	0xbeda4413	-0.42630062
173	0xbe462b0b	-0.19352357
174	0xbdf88446	-0.12134604
175	0x3cade466	0.021227073
176	0xbc8ea17b	-0.017410984
177	0x3de5f986	0.112292334
178	0x3b8a7543	0.0042254045
179	0xbe1d7a04	-0.15378577
180	0x3db63b9c	0.08898088
181	0x3e884973	0.26618537
182	0x3d575c3c	0.052578196
183	0x3ea2531c	0.31704032
184	0x3e542608	0.20717633
185	0x3e41d4ed	0.18928881
186	0xbbac87d9	-0.0052652177
187	0xbe467140	-0.19379139
188	0xbdfc48bc	-0.123185605
189	0x3de5d19d	0.11221621
190	0x3d63c4b7	0.055607524
191	0x3da334b7	0.07969039
192	0x3db50ae4	0.08839968
193	0x3d9f7f18	0.07787913
194	0xbe845682	-0.2584725
195	0x3e1ac502	0.15114215
196	0x3d309fc7	0.043121126
197	0xbdf347dd	-0.11878941
198	0xbe1acdae	-0.15117523
199	0x3e1920b9	0.14953889
200	0xbe859b8f	-0.26095244
201	0xbdf6baa2	-0.12047316
202	0x3cefde31	0.029280754
203	0xbe457938	-0.19284523
204	0x3d381acd	0.044947434
205	0xbdedb834	-0.116073996
206	0x3d4fbb7d	0.050715912
207	0x3e8e8fde	0.27844137
208	0xbdf1f09e	-0.11813472
209	0xbeab3a4f	-0.33442923
210	0xbdd12bd0	-0.10213435
211	0xbdd98935	-0.10621873
212	0xbdd23438	-0.10263866
213	0x3dc47b2b	0.09593805
214	0x3e33be43	0.17553048
215	0x3db1a75e	0.08674501
216	0xbe97dcfe	-0.2966079
217	0xbe078d8d	-0.13237591
218	0xbd456717	-0.048194017
219	0xbe237e2f	-0.15966104
220	0x3db3a3c6	0.08771472
221	0xbc1cc242	-0.009567799
222	0x3e5f5d72	0.2181299
223	0xbc14a23c	-0.009071883
224	0xbdff9e05	-0.12481312
225	0xbd5f432a	-0.054507412
226	0xbdd535e5	-0.1041067
227	0xbe4700e2	-0.1943393
228	0xbaf93536	-0.001901305
229	0x3e67caf1	0.2263601
230	0xbb575665	-0.0032857892
231	0xbd10f810	-0.03539282
232	0xbd689f3c	-0.056792483
233	0xbe92d7e3	-0.28680333
234	0xbdbd81a0	-0.0925324
235	0x3d1c5853	0.03817017
236	0xbe851283	-0.25990686
237	0xbd7ce557	-0.061742153
238	0xbd8ca267	-0.06866913
239	0xbda1d3eb	-0.07901748
240	0x3da23a24	0.07921246
241	0x3d9eb760	0.0774982
242	0x3e0c66b5	0.13711055
243	0x3d59ab39	0.053141806
244	0xbd1b8bb8	-0.037975043
245	0xbe87b487	-0.2650492
246	0x3dd0b012	0.10189833
247	0xbe677302	-0.22602466
248	0xbe002afb	-0.12516396
249	0xb9e23494	-0.00043145253
250	0xbd415dfc	-0.04720877
251	0x3c089e57	0.008338532
252	0xbe66c0c8	-0.22534478
253	0x3c033ad6	0.008009633
254	0xbdb38c67	-0.08767014
255	0xbee12903	-0.43976602

conv4.bias f4 [64]
0	0x3e463f75	0.19360144
1	0xbd8f624a	-0.07001169
2	0xbd434122	-0.047669537
3	0x3e206d55	0.15666707
4	0xbdfcb8f2	-0.12339963
5	0x3d9e3b0c	0.07726106
6	0x3e980eda	0.2969883
7	0x3e5d1762	0.21590951
8	0x3e813a7e	0.25239938
9	0x3de6a92c	0.11262736
10	0x3e0669d0	0.13126302
11	0x3e57bdce	0.21068498
12	0x3e548413	0.20753507
13	0x3e132860	0.1437087
14	0xbc6e6ae8	-0.014551856
15	0x3e32e547	0.17470275
16	0x3d6347ee	0.05548852
17	0x3e42226f	0.18958448
18	0x3eb8b115	0.36072603
19	0xbd2e2107	-0.042511966
20	0x3e944d36	0.28965157
21	0x3e1fcbb0	0.15605044
22	0x3e5e9ba6	0.21739063
23	0x3d42a983	0.04752494
24	0x3e21810d	0.15771885
25	0x3e66153d	0.2246904
26	0x3e4174c0	0.18892193
27	0xbc5b9ec9	-0.013404557
28	0x3e3175b6	0.1733006
29	0x3e6e4516	0.23268542
30	0x3e2bdc66	0.16783294
31	0xbc602c1b	-0.013682391
32	0x3d4d2d53	0.050092053
33	0x3e7c2055	0.24621709
34	0x3e8ea33a	0.27858907
35	0x3dc8ff68	0.0981434
36	0x3e4da80a	0.20083633
37	0x3e73a2c8	0.23792565
38	0xbd86f5bf	-0.06589841
39	0xbc2e6271	-0.010643587
40	0x3d70db74	0.058803037
41	0x3e13c368	0.1443001
42	0x3e5e8cb5	0.21733363
43	0x3e30bee9	0.17260326
44	0x3e57d7bd	0.21078391
45	0xbdb90688	-0.09034449
46	0x3dee8857	0.116470985
47	0xbdbf5cad	-0.093438484
48	0xbe7730e4	-0.24139744
49	0x3e8eec21	0.27914527
50	0x3ded9c93	0.1160213
51	0x3deec85a	0.11659308
52	0x3dcb0d22	0.09914614
53	0x3c8a4bb5	0.016881803
54	0x3db753d8	0.08951539
55	0x3e7c5275	0.2464083
56	0xbd7f6074	-0.062347844
57	0x3e61bbf9	0.22044362
58	0x3e492f1e	0.1964688
59	0x3d160d44	0.036633745
60	0x3d148035	0.03625508
61	0x3e255b0f	0.16148017
62	0x3e5bb117	0.21454273
63	0x3ce4486f	0.02786657

fc1.weight f4 [128, 1024]
0	0xbcc164ed	-0.023607695
1	0xbe008000	-0.12548828
2	0xbcdb3608	-0.026759163
3	0xbda51764	-0.08061102
4	0x3c8b5e8b	0.017012855
5	0x3da67c6e	0.08129202
6	0x3e060f60	0.13091803
7	0x3c94d091	0.018165858
8	0xbcf43622	-0.029810969
9	0xbdcb128c	-0.09915647
10	0x3e32b1fd	0.1745071
11	0x3e01da9a	0.12681046
12	0xbe360cf4	-0.17778379
13	0x3e024c8e	0.12724516
14	0x3e26853f	0.16261767
15	0x3d0c7ff4	0.034301713
16	0xbeb32830	-0.34991598
17	0xbe803618	-0.2504127
18	0x3df95af4	0.12175551
19	0x3d287f36	0.041136943
20	0xbb6d05ab	-0.0036166708
21	0xbd6acc7f	-0.05732393
22	0x3dc66bd8	0.09688538
23	0x3d484d59	0.04890189
24	0x3df9f6fe	0.12205313
25	0x3dad8f82	0.084746376
26	0x3dbd7e55	0.092526115
27	0x3d400c2c	0.046886608
28	0x3a6d64cd	0.0009055853
29	0x3e8b88e8	0.2725289
30	0x3e3db00f	0.18524192
31	0xbe2f0eb2	-0.1709545
32	0xbdf3837c	-0.11890313
33	0xbd3ab366	-0.045581244
34	0x3debcf12	0.11514105
35	0x3df4b940	0.11949396
36	0x3e61ace3	0.22038607
37	0x3e1961c9	0.14978708
38	0x3e86479a	0.26226503
39	0xbc3e2cc4	-0.011607353
40	0x3e65f812	0.22457913
41	0x3e1881c2	0.14893249
42	0xbc1ace0c	-0.0094485395
43	0xbe124ff1	-0.14288308
44	0x3e8b52bd	0.27211562
45	0x3dbbb74f	0.09165823
46	0xbc6e5e1f	-0.014548807
47	0xbd79125e	-0.060808532
48	0xbc170986	-0.009218579
49	0xbe24a982	-0.16080287
50	0xbdca7e74	-0.098874
51	0x3d8c1f9d	0.06841967
52	0x3d02b199	0.03190765
53	0x3d9babbb	0.07601114
54	0xbdb34f6b	-0.08755382
55	0x3da01db0	0.078181624
56	0x3e899559	0.26871756
57	0xbd731dfd	-0.05935477
58	0x3c47bb8d	0.012190712
59	0x3e9702ef	0.29494426
60	0x3d7b92fc	0.061419472
61	0xbc9c362d	-0.019068802
62	0x3c87ce2f	0.016577808
63	0x3e80628d	0.25075188
64	0xbe24b099	-0.16082992
65	0x3e09b9cc	0.13449782
66	0x3f0263ce	0.5093354
67	0x3ed3c1b5	0.41358724
68	0xbe250cc6	-0.16118154
69	0x3d4ec5fa	0.050481774
70	0x3ea68ee1	0.32530883
71	0x3efe2268	0.49635625
72	0x3d3a4779	0.045478318
73	0x3dcb76af	0.099347465
74	0x3e1e9528	0.15486586
75	0xbc5b62af	-0.013390227
76	0xbdfcb594	-0.12339321
77	0xbe276384	-0.16346556
78	0x3d0a3365	0.03374042
79	0xbea5a927	-0.32355615
80	0x3de8f473	0.1137475
81	0x3e3b8fb7	0.18316542
82	0xbe49ad35	-0.1969498
83	0xbe1981aa	-0.14990869
84	0xbddee99d	-0.10884402
85	0x3d95e1b9	0.07318444
86	0xbecfd719	-0.40593794
87	0xbe30d184	-0.17267424
88	0x3d307a59	0.04308543
89	0xbd95523a	-0.07291074
90	0xbea57be6	-0.3232109
91	0x3e49e19b	0.19714968
92	0xbda25db1	-0.079280265
93	0xbd90532b	-0.07047113
94	0xbe113f70	-0.14184356
95	0x3e999835	0.29998937
96	0x3e6ae35f	0.22938298
97	0x3e2c70a6	0.16839847
98	0x3e70204e	0.23449823
99	0x3e0ac661	0.13552238
100	0x3d242a66	0.040079497
101	0xbe9984d2	-0.29984146
102	0x3e2c9f72	0.16857699
103	0x3d396231	0.04525966
104	0x3e2d0fc9	0.16900553
105	0x3e03934b	0.12849157
106	0x3e019d5a	0.12657681
107	0xbde131ee	-0.109958515
108	0x3edf4675	0.43608442
109	0xba2f1fe3	-0.00066804717
110	0xbdd25812	-0.10270704
111	0xbd53abf3	-0.051677655
112	0xbd5b4a3c	-0.053537592
113	0xbe866388	-0.2624781
114	0xbe44c008	-0.19213879
115	0x3dbf33c8	0.09336048
116	0x3e46b3bd	0.19404502
117	0xbd375ca7	-0.044766095
118	0xbe96e8f3	-0.294746
119	0xbe2a78c5	-0.16647632
120	0x3ea28295	0.3174025
121	0xbdd0e825	-0.10200528
122	0xbdc5b1e2	-0.09653069
123	0x3deb7b3c	0.114981145
124	0x3c5514b4	0.013005424
125	0xbbff3534	-0.0077883247
126	0xbda7112c	-0.08157572
127	0x3d9d0de5	0.07668666
128	0x3e3e4dfa	0.18584433
129	0x3b623d1d	0.003452129
130	0xbea759f5	-0.3268582
131	0x3e11bd2a	0.14232317
132	0x3de13550	0.10996497
133	0x3dec3cc3	0.11535027
134	0xbdc37723	-0.09544208
135	0xbe6bb12c	-0.23016804
136	0xbe865e9d	-0.2624406
137	0x3e925aef	0.28585002
138	0xbdb4ffd6	-0.08837859
139	0xbd491df9	-0.04910085
140	0xbd292908	-0.041298896
141	0x3dd21aeb	0.102590404
142	0xbe95b65e	-0.29240698
143	0xbd2ad159	-0.041703556
144	0xbd251cb4	-0.040310577
145	0x3e410a7b	0.18851654
146	0xbd23056f	-0.039800104
147	0x3e8ba478	0.27273917
148	0xbea423bf	-0.32058522
149	0xbb378dae	-0.0028008032
150	0x3e354b6a	0.1770455
151	0x3e00c019	0.1257328
152	0x3d9e750b	0.07737168
153	0x3e076692	0.13222721
154	0xbdbda77c	-0.09260461
155	0xbebf0a99	-0.37312773
156	0x3e7934e9	0.2433659
157	0x3dc7ed35	0.097620405
158	0xbdab7b66	-0.08373146
159	0xbd03e621	-0.03220189
160	0x3da61db9	0.08111138
161	0x3db46239	0.08807797
162	0x3b916404	0.0044369716
163	0xbe32e95c	-0.17471832
164	0x3d5b83da	0.05359254
165	0x3e935d76	0.28782243
166	0x3cde68ae	0.027149525
167	0x3c80d0ad	0.015724504
168	0x3db96e4b	0.0905424
169	0x3d633a44	0.05547549
170	0xbde54492	-0.111947194
171	0x3e673210	0.22577691
172	0xbdefc5fe	-0.11707686
173	0xbe8b241e	-0.27175993
174	0x3e3479eb	0.17624633
175	0x3e364e48	0.178033
176	0x3da390f5	0.07986633
177	0x3e2c42e3	0.1682239
178	0x3ef6e4ad	0.4822134
179	0x3e7fb231	0.24970318
180	0x3cc9ec75	0.024648884
181	0xbdce185a	-0.100632384
182	0x3dfe4d55	0.12417094
183	0xbe219969	-0.15781178
184	0xbe6cb3e9	-0.23115505
185	0xbdc524f6	-0.0962619
186	0xbe1ccab3	-0.15311699
187	0xbe02fd70	-0.12791991
188	0x3e370261	0.17872001
189	0x3e24d82f	0.16098092
190	0xbe3fb651	-0.18721892
191	0xbeaaf70a	-0.333916
192	0xbea63e41	-0.3246937
193	0xbd60b9a2	-0.054864533
194	0xbe901e4b	-0.28148112
195	0xbde9c344	-0.11414197
196	0x3d9e0b80	0.07717037
197	0xbe51ee00	-0.20500946
198	0x3e34ca97	0.17655407
199	0xbd25a995	-0.04044493
200	0x3ebe40cc	0.3715881
201	0xbdd37a90	-0.10326111
202	0x3d867b46	0.06566481
203	0x3dcfd9ff	0.10149001
204	0xbc3c5893	-0.011495727
205	0x3dd6223a	0.10455747
206	0xbdb18e53	-0.08669724
207	0x3c6d28c5	0.014475052
208	0x3cd1caca	0.025609393
209	0xbe85aabc	-0.26106822
210	0xbea2087e	-0.31647104
211	0xbd14e583	-0.036351692
212	0x3d9941ff	0.07483291
213	0xbe2c1286	-0.16803941
214	0xbe4bf22e	-0.19916603
215	0xbd9f5185	-0.077792205
216	0xbd8ac4e5	-0.06775836
217	0x3d93505c	0.07193062
218	0xbd6ba381	-0.057528976
219	0x3d95aea4	0.07308701
220	0x3e19c648	0.15017045
221	0x3e519ee4	0.20470768
222	0xbda5d9a5	-0.08098153
223	0xbdb238c4	-0.087022334
224	0xbe83a533	-0.25711975
225	0xbe7196e5	-0.23592718
226	0x3e31ce65	0.1736389
227	0x3e6b1a3c	0.22959226
228	0xbe2b1077	-0.167055
229	0xbeb4eb97	-0.3533599
230	0x3e9c1041	0.3048115
231	0x3dcbc957	0.09950512
232	0x3e4a61df	0.19763897
233	0xbe09c967	-0.13455735
234	0xbd37ddc3	-0.044889223
235	0x3de1f8dd	0.11033795
236	0x3df1de16	0.11809938
237	0xbe785895	-0.24252541
238	0xbd616def	-0.05503648
239	0xbd51bb00	-0.051203728
240	0xbdb5d8d6	-0.08879249
241	0xbda6dda0	-0.0814774
242	0xbea7b597	-0.3275573
243	0xb879b298	-5.9532555e-05
244	0xbeb3c522	-0.35111338
245	0x3d5e11e3	0.054216277
246	0xbc9ef6f4	-0.019404866
247	0x3d97e5c7	0.074168734
248	0x3ea9d952	0.33173615
249	0x3d85f87d	0.06541536
250	0x3d8ef445	0.069801845
251	0xbddac480	-0.10682011
252	0xbc907101	-0.01763201
253	0x3d58b1bd	0.05290388
254	0x3e0c36a8	0.13692725
255	0x3e8c9b1c	0.2746209

fc1.bias f4 [128]
0	0x3dd6d180	0.10489178
1	0xbe85d5fb	-0.26139817
2	0x3e5f153a	0.21785441
3	0xbe42b9ee	-0.19016239
4	0x3e88ab05	0.26692978
5	0x3da1805c	0.07885811
6	0x3e75ebcb	0.24015729
7	0xbd8d4751	-0.06898368
8	0x3e29a304	0.16566092
9	0x3e245b73	0.1605051
10	0xbd064739	-0.032782767
11	0x3edbe5d7	0.4294879
12	0xbdcb5047	-0.09927421
13	0x3eaca5f4	0.33720362
14	0xbba19420	-0.004930988
15	0xbe5c4e8d	-0.2151434
16	0xbe551fb4	-0.20812875
17	0xbcfa40a9	-0.03054841
18	0xbde15b99	-0.11003799
19	0x3ebae5d8	0.36503482
20	0x3f14ed8b	0.5817496
21	0x3e149b21	0.14512302
22	0x3d73ad72	0.059491582
23	0x3f14dba8	0.5814767
24	0xbdc1f32e	-0.09470211
25	0xbda73df6	-0.08166115
26	0xbe0b70f8	-0.13617313
27	0xbc9e52e4	-0.019326635
28	0x3ec214fd	0.37906638
29	0x3e87c325	0.2651607
30	0xbc898b94	-0.016790189
31	0xbdc5e4f2	-0.096628085
32	0x3eb37d61	0.35056594
33	0x3d9f490e	0.07777606
34	0xbc847767	-0.016170217
35	0xbe6bee2b	-0.23040073
36	0xbde16dc3	-0.110072635
37	0x3d12c16b	0.03582899
38	0x3e87ffec	0.2656244
39	0xbdc340e0	-0.09533858
40	0xbe28056f	-0.16408323
41	0x3dd9bc17	0.106315784
42	0xbdfb93a9	-0.12284023
43	0xbd47c6f4	-0.04877372
44	0xbe1c7492	-0.15278843
45	0x3dfc45cb	0.123179995
46	0xbdd4b2a8	-0.103856385
47	0x3dbb5425	0.09146909
48	0x3e1a6f3e	0.15081498
49	0x3eee6d1f	0.46567628
50	0xbc80becf	-0.015715985
51	0x3dc2f147	0.09518676
52	0xbcacce17	-0.021094365
53	0x3dcd0589	0.10010821
54	0x3ed5cc98	0.41757655
55	0xbe647880	-0.22311592
56	0xbd635c92	-0.055508204
57	0x3d915c72	0.07097711
58	0x3e4616dd	0.19344659
59	0x3d312bdc	0.04325472
60	0x3d8f1acd	0.06987534
61	0xbea5c029	-0.3237317
62	0xbe7e5ae1	-0.24839355
63	0xbe1b7720	-0.15182161
64	0xbd37093b	-0.044686537
65	0xbeb5c5c5	-0.3550245
66	0x3d596497	0.053074446
67	0xbe3fb29c	-0.18720478
68	0xbb8e607c	-0.004344998
69	0xbc5e306d	-0.01356135
70	0xbdbb9086	-0.09158425
71	0x3e884654	0.26616156
72	0xbecb1bcb	-0.39669642
73	0x3efa6776	0.4890706
74	0xbe97abcb	-0.29623255
75	0xbe196aae	-0.14982101
76	0x3e17acae	0.14811966
77	0x3d932e1c	0.07186529
78	0xbe770ad7	-0.24125229
79	0x3e8ca394	0.2746855
80	0x3db6efbe	0.08932446
81	0xbde129b0	-0.109942794
82	0xbe53a207	-0.20667277
83	0x3dc664a8	0.096871674
84	0xbb0a0a5c	-0.0021063304
85	0x3c9ac2c1	0.018891694
86	0xbd4a11c7	-0.04933336
87	0xbe690c31	-0.22758557
88	0xbdf6d955	-0.120531715
89	0xbd36af35	-0.044600684
90	0xbe16d180	-0.14728355
91	0xbe8271a5	-0.2547733
92	0xbd902653	-0.0703856
93	0x3c990c87	0.018682731
94	0xbe270a3a	-0.16312495
95	0xbe09d260	-0.13459158
96	0xbe74412e	-0.23852989
97	0xbdf8b195	-0.12143246
98	0x3ef63931	0.4809051
99	0x3cdff323	0.027337616
100	0xbdc84f35	-0.097807325
101	0xbe3db4ec	-0.18526047
102	0xbe8be112	-0.27320153
103	0xbd8ccfe3	-0.06875589
104	0x3ea33b4e	0.31881183
105	0xbd4c616c	-0.049897596
106	0xbdd27ef8	-0.102781236
107	0xbe173c6c	-0.14769143
108	0xbc769092	-0.015049117
109	0xbe979e78	-0.2961309
110	0xbd74e2dc	-0.059786662
111	0xbdf9b336	-0.12192385
112	0xbe461a2b	-0.1934592
113	0xbed9a570	-0.4250903
114	0x3da0b414	0.07846847
115	0x3dcaa2e8	0.09894353
116	0x3d9a3012	0.075287
117	0xbd5438ae	-0.051811866
118	0xbde96e94	-0.11398044
119	0x3e90c72a	0.2827695
120	0xbe3065bb	-0.17226307
121	0xbe254a72	-0.1614168
122	0xbea676fa	-0.32512647
123	0xbe40e46b	-0.18837135
124	0xbedeb4d1	-0.43497327
125	0x3e7e4cf2	0.2483404
126	0x3e3d0fdd	0.18463083
127	0xbe321725	-0.17391641

fc2.weight f4 [10, 128]
0	0xbe909f76	-0.2824666
1	0xbe94721c	-0.2899331
2	0xbeb1742b	-0.34658942
3	0xbe954b0e	-0.29158825
4	0xbf024879	-0.50891834
5	0x3ddec4cb	0.10877379
6	0x3d287e04	0.041135803
7	0xbe1b2492	-0.15150669
8	0xbf0804c9	-0.531323
9	0xbe41225f	-0.18860768
10	0xbe89fe8a	-0.2695201
11	0xbeb8b0b0	-0.36072302
12	0xbd16dbe2	-0.03683079
13	0xbf0714f5	-0.5276635
14	0xbe5fa74c	-0.21841162
15	0xbead7a01	-0.33882144
16	0xbdc1aee2	-0.094571844
17	0xbd462512	-0.048375197
18	0x3e093ec4	0.1340285
19	0xbcf73e96	-0.03018121
20	0xbe1237b8	-0.14279068
21	0xbdd51fb1	-0.10406435
22	0xbf0817fe	-0.5316161
23	0xbeed3da8	-0.46336102
24	0x3e11ac96	0.14225993
25	0x3de1a770	0.11018264
26	0x3db131e0	0.08652091
27	0xbd1871c0	-0.037217855
28	0xbef6f019	-0.48230055
29	0xbefef18e	-0.49793667
30	0xbea014d2	-0.31265885
31	0xbd8791a8	-0.066195786
32	0x3e0a66ef	0.13515829
33	0xbd5534c4	-0.052052274
34	0xbe912fed	-0.28356877
35	0xbdec8646	-0.11549048
36	0xbe22a664	-0.15883785
37	0xbeb871c9	-0.3602431
38	0xbd633ace	-0.055476002
39	0xbe440ed3	-0.1914628
40	0x3d133d9b	0.035947423
41	0xbe127731	-0.1430328
42	0xbef1067f	-0.4707527
43	0xbccfefdc	-0.025382929
44	0x3c8291b7	0.015938623
45	0x3d081e54	0.03323205
46	0x3d770c9a	0.060314752
47	0x3d35e487	0.044407394
48	0xbe41d429	-0.18928589
49	0x3c84d6b6	0.016215663
50	0xbdfd427c	-0.123661965
51	0xbdead724	-0.11466816
52	0x3e57d89c	0.21078724
53	0xbec0dbd6	-0.37667722
54	0xbe1c2007	-0.15246592
55	0xbec079c3	-0.37592897
56	0x3c85ebe3	0.016347831
57	0xbbcf6260	-0.006328866
58	0xbd1a4c65	-0.03767051
59	0x3e09d8fc	0.13461679
60	0xbd254b57	-0.040355053
61	0x3bc85d67	0.00611465
62	0xbeea3d7d	-0.45750037
63	0xbe255be3	-0.16148333
64	0xbd45995a	-0.04824195
65	0xbe868544	-0.2627355
66	0x3dae0f02	0.08498956
67	0xbe60615d	-0.21912141
68	0x3d901fd6	0.07037322
69	0xbee9cf4b	-0.45665964
70	0x3e025eec	0.12731522
71	0x3d890a95	0.066914715
72	0x3b705a66	0.0036674975
73	0xbe3be69e	-0.18349692
74	0xbe86556b	-0.26237044
75	0xbe37506b	-0.17901771
76	0xbe59322b	-0.21210544
77	0xbe8729f1	-0.26399186
78	0xbe66b6f1	-0.22530724
79	0xbdbf48b2	-0.093400374
80	0x3e4e7a2c	0.20163792
81	0xbe260bf9	-0.16215505
82	0x3d9f7689	0.07786281
83	0x3e3d239f	0.1847062
84	0xbe86492a	-0.26227695
85	0xbeb00adf	-0.34383294
86	0xbd3674e4	-0.04454507
87	0x3dd5775e	0.10423158
88	0x3dd043fa	0.101692155
89	0xbeda032c	-0.42580545
90	0x3d3ab0ab	0.04557864
91	0xbe29b458	-0.16572702
92	0x3d228740	0.039679766
93	0xbebc54c4	-0.3678342
94	0x3db62301	0.08893395
95	0x3dbe8584	0.0930281
96	0x3d0bed08	0.034161597
97	0xbcf012c0	-0.029305816
98	0x3d936814	0.07197586
99	0x3dd0d248	0.10196358
100	0x3d735d98	0.05941543
101	0xbecc1c9e	-0.39865583
102	0xbe064248	-0.13111222
103	0x3c5e23fb	0.013558383
104	0xbe30ea59	-0.17276897
105	0x3d8711d9	0.06595201
106	0xbcdf9b9d	-0.027295882
107	0xbeb2efac	-0.3494848
108	0xbe8e6d5e	-0.27817816
109	0xbe803b11	-0.25045064
110	0x3d8cc8e6	0.06874256
111	0x3d947601	0.0724907
112	0xbe7b6d1f	-0.24553345
113	0xbe37e484	-0.17958266
114	0xbecebd8d	-0.4037899
115	0xbea27c64	-0.31735528
116	0xbeb67124	-0.35633194
117	0xbd6156ea	-0.05501453
118	0xbe47a805	-0.19497688
119	0xbeb4ed04	-0.3533708
120	0xbcdcb93d	-0.026943797
121	0x3d114946	0.03547027
122	0xbe854b78	-0.2603414
123	0xbd51e749	-0.05124596
124	0xbe87644a	-0.26443702
125	0xbde105d0	-0.10987437
126	0xbe3ed818	-0.1863712
127	0x3db3368c	0.08750638
128	0xbcb241d3	-0.021759903
129	0xbe475150	-0.19464612
130	0x3e086687	0.13320361
131	0xbdd6485e	-0.10463022
132	0x3d73a779	0.059485886
133	0xbde57638	-0.11204189
134	0xbbc1d8e0	-0.005915746
135	0xbd878b30	-0.06618345
136	0x3d794489	0.060856376
137	0x3da6d587	0.08146196
138	0xbdb4ac21	-0.088218935
139	0x3db6bbe0	0.08922553
140	0xbe54dd87	-0.20787631
141	0x3e386e69	0.18010868
142	0xbe0bcaae	-0.13651535
143	0xbe068e65	-0.13140257
144	0x3c6f6bd3	0.01461311
145	0xbe40c795	-0.18826135
146	0xbe012137	-0.12610327
147	0x3e11a236	0.14222035
148	0x3e72b8bd	0.23703285
149	0x3d26f062	0.04075659
150	0xbc980d92	-0.018561158
151	0x3e3013b6	0.17195019
152	0xbe7bb60a	-0.24581161
153	0xbed6dd9c	-0.4196595
154	0xbeb0a362	-0.3449965
155	0xbe08cece	-0.1336014
156	0xbcd9f624	-0.026606627
157	0x3d730444	0.05933024
158	0x3e2b0251	0.16700102
159	0xbda5a33e	-0.080877766
160	0x3d4c76de	0.049918048
161	0xbda1c7ba	-0.07899423
162	0x3d609fd6	0.05483993
163	0xbe80cb21	-0.25154975
164	0xbdac55d3	-0.08414807
165	0xbdc36fa8	-0.09542781
166	0x3e1d4ca7	0.15361272
167	0xbe4c0274	-0.19922811
168	0xbe490db1	-0.19634129
169	0xbc64f20c	-0.013973724
170	0xbeb5a880	-0.35480118
171	0x3cc7ab08	0.024373546
172	0xbe9ac540	-0.30228615
173	0xbd716fe6	-0.058944605
174	0xbe5461be	-0.2074041
175	0xbe32d305	-0.1746331
176	0x3dcfb6ce	0.10142289
177	0x3d2e2725	0.0425178
178	0x3ce16e1f	0.02751833
179	0x3d8f2f40	0.06991434
180	0xbec9fb4d	-0.3944954
181	0x3de60c8d	0.112328626
182	0x3d4ac878	0.04950759
183	0x3cc46d11	0.023977788
184	0xbe0d4ca2	-0.13798764
185	0xbe308281	-0.17237283
186	0x3d888a12	0.0666696
187	0xbe7ffb4e	-0.24998209
188	0x3d194899	0.03742275
189	0xbe128a21	-0.14310504
190	0xbdac532a	-0.084143
191	0xbd958d0b	-0.073022924
192	0xbccf7026	-0.025322031
193	0xbea31d5b	-0.31858334
194	0x3db250bc	0.08706805
195	0xbe5e35db	-0.21700232
196	0xbe780333	-0.2421997
197	0xbd6572c8	-0.056017667
198	0xbe9c7261	-0.30556014
199	0x3d8d3fe9	0.068969555
200	0xbe871641	-0.26384166
201	0x3dab83fe	0.08374785
202	0xbe8fd4f0	-0.28092146
203	0xbdf93360	-0.12168002
204	0x3d98be62	0.07458188
205	0xbde49dfc	-0.11162946
206	0xbd2fea5a	-0.042948104
207	0x3e019fb9	0.12658586
208	0xbe1371c9	-0.14398874
209	0xbea67b5b	-0.32515988
210	0xbd1cd824	-0.038292065
211	0xbd34cb94	-0.04413946
212	0xbb0cfed7	-0.00215142
213	0x3d96ccc6	0.07363276
214	0xbcbb327b	-0.02285122
215	0xbe587efc	-0.2114219
216	0xbece5044	-0.40295613
217	0xbe8bf128	-0.27332425
218	0xbe999fa1	-0.300046
219	0xbe9fb36c	-0.31191576
220	0x3c81ea5f	0.015858827
221	0xbda6ae98	-0.0813877
222	0xbe820c69	-0.25400093
223	0xbec1f02f	-0.37878558
224	0xbe8befca	-0.27331382
225	0xbe5a7d70	-0.21336913
226	0x3dd689c5	0.10475496
227	0xbdecff49	-0.11572129
228	0xbe2c0a3b	-0.16800778
229	0xbdfb7be5	-0.122794904
230	0xbe7b6086	-0.2454854
231	0x3bdfa022	0.0068245092
232	0x3e08252b	0.13295428
233	0x3d630349	0.055423055
234	0xbdd91ce0	-0.106012106
235	0xbe97e1f0	-0.29664564
236	0x3d4c97aa	0.049949326
237	0xbdd08d3b	-0.101831876
238	0xbe1d9fb2	-0.1539295
239	0xbe5904cb	-0.21193235
240	0x3d7e2389	0.062045608
241	0xbd68513c	-0.056718096
242	0xbd82dfc2	-0.06390335
243	0x3d2f6f2f	0.042830642
244	0x3cd25b86	0.025678407
245	0xbd04ca32	-0.03241939
246	0x3d76e65f	0.060278293
247	0x3e1171dd	0.14203592
248	0xbec632fb	-0.3871077
249	0x3ddee542	0.10883571
250	0xbe33c568	-0.17555773
251	0xbd6de849	-0.058082853
252	0xbe44fe7a	-0.192377
253	0x3df69ff7	0.120422296
254	0x3dbe0db9	0.09279961
255	0xbf090fdd	-0.5353983

fc2.bias f4 [10]
0	0x3dad641c	0.0846636
1	0x3f17042f	0.5899076
2	0xbe3c940f	-0.18415855
3	0x3d9300bc	0.071778744
4	0xbe78f4a1	-0.24312069
5	0xbe86e86a	-0.26349193
6	0xbeaf4978	-0.3423574
7	0xbe48a5ba	-0.1959447
8	0x3e8bb6b3	0.27287826
9	0x3d0bc43c	0.03412269
