front_end_web/onnx_model_2.onnx (onnx, 791453 bytes, 12 tensors)

conv1.weight f4 [32, 1, 3, 3]
-0.13960998 -0.20885374 -0.32286555 -0.19046311 0.16589272 -0.120360054 -0.15031181 0.0048511093
-0.2284536 -0.26645997 0.11039232 0.15247472 -0.10288496 0.18685196 0.27280167 -0.16573131
0.2573589 -0.16892684 0.17566964 -0.23281714 0.12959832 -0.30159158 -0.14672036 -0.1409804
-0.030429719 0.027305137 -0.27250358 0.1715373 -0.073469006 -0.17846707 0.023977341 -0.18319981
-0.002490195 0.013769113 -0.08698518 -0.02912171 0.28128064 -0.3485322 0.0941478 0.03590628
-0.379488 0.24223779 0.3032218 -0.03415414 -0.22106722 -0.0976592 0.32100093 0.04520653
-0.29817793 0.07305734 0.10811793 -0.20763892 -0.29441068 -0.3760021 -0.37193146 -0.36415356
0.09454066 0.1662063 0.2469554 0.3176327 0.13353136 -0.05718492 -0.097844645 0.18482518
0.13825144 0.04054117 0.0063582603 0.24124429 -0.34404072 0.15080191 0.117214866 0.110090554
-0.0626153 0.15287912 -0.034092933 -0.37090912 -0.0024215067 0.12895107 0.19344246 -0.32404527
-0.0752227 0.27101746 0.26621562 -0.28148907 -0.089217566 0.0066617704 0.12348053 -0.13287131
0.14030507 0.04493821 -0.35020003 -0.21704736 -0.2860913 -0.18944812 0.023997804 -0.16837639
-0.12570432 0.23602508 0.29346192 -0.2827064 0.09676982 0.03508428 -0.23137088 0.05523131
0.040036935 0.036492273 -0.25227323 -0.094227955 0.05150279 0.3080463 0.1129972 0.06615043
-0.22398773 0.2478491 -0.2807247 -0.25619012 0.1253739 0.32843688 -0.04441245 -0.2955606
-0.24525975 -0.036585476 -0.19846317 -0.018097796 -0.24350917 -0.093122765 0.22351213 0.064321145
0.35693702 -0.10025841 -0.10259117 -0.13030393 -0.31633964 -0.1018562 -0.06189982 -0.10670014
0.09885404 -0.2963405 -0.14164335 -0.24606483 -0.16147113 -0.052502897 -0.0843708 0.34142146
-0.30910075 0.0143669695 0.12149713 -0.12663834 -0.17390236 -0.4258769 -0.062144823 -0.08701558
-0.032108914 0.24976501 0.11074125 -0.36993393 -0.0058403136 -0.46926588 0.16729319 -0.13586453
-0.028666165 -0.0028435222 0.16523513 -0.3091265 0.2607489 0.2779818 0.022185652 0.007749045
-0.2624256 -0.113275886 -0.071963154 -0.02986092 0.20687896 -0.18200977 -0.10210994 -0.2974878
0.17750008 -0.19127028 0.1989226 -0.0040538525 -0.27847558 0.21078338 -0.26304543 0.05820975
0.07050039 0.16837978 -0.1496901 -0.047829077 0.0013019154 -0.327601 0.15206245 0.06951429
0.25083154 0.016537374 0.11336454 0.19115497 -0.35234904 -0.13252167 -0.25797218 0.26635423
-0.30375203 0.07906789 -0.08004421 -0.14119245 -0.034727097 0.085610405 0.12654433 -0.28172958
0.23101683 -0.19603789 -0.12900823 0.14876814 -0.15236455 0.15096824 0.25716594 -0.17647058
0.2616157 -0.39287692 -0.13799344 -0.15162638 -0.069165684 0.2677455 0.021273986 0.20568588
0.0261254 -0.28910294 0.15619434 -0.25503764 -0.27106974 -0.038595725 -0.123025276 -0.15105958
0.109874494 -0.23643316 -0.30603582 -0.08329388 0.26118413 -0.32208565 0.15586449 0.025975263
0.027292842 -0.014527853 0.31172076 -0.2974179 0.18737125 0.21905902 -0.353729 0.16766617
-0.27474174 -0.087398 0.17838381 -0.32551876 0.031439897 0.07106005 0.19764845 0.017567307
00000000: ebf5 0ebe c1dd 55be a24e a5be c308 43be
00000010: c8df 293e 557f f6bd 57eb 19be 0ef6 9e3b
00000020: beef 69be 716d 88be 5e15 e23d 5522 1c3e
00000030: 5ab5 d2bd 1f56 3f3e a9ac 8b3e 78b5 29be
00000040: 8cc4 833e 28fb 2cbe bee2 333e 9e67 6ebe
00000050: 6cb5 043e 366a 9abe dd3d 16be 2a5d 10be
00000060: bf47 f9bc 06af df3c 9785 8bbe 79a7 2f3e
00000070: eb76 96bd 12c0 36be 216c c43c bb98 3bbe
00000080: 8a32 23bb d997 613c 4925 b2bd a790 eebc
00000090: 0404 903e d072 b2be 90d0 c03d 7712 133d
000000a0: 404c c2be 2f0d 783e e33f 9b3e 36e5 0bbd
000000b0: 725f 62be 8c01 c8bd 3c5a a43e 7b2a 393d
000000c0: c7aa 98be 169f 953d ef6c dd3d 4c9f 54be
000000d0: ffbc 96be 5983 c0be cd6d bebe 5672 babe
000000e0: 899e c13d fc31 2a3e e0e1 7c3e c1a0 a23e
000000f0: 72bc 083e bc3a 6abd c662 c8bd d042 3d3e
00000100: c991 0d3e 7f0e 263d f458 d03b be08 773e
00000110: 1b26 b0be d16b 1a3e 590e f03d 2877 e13d
00000120: 733c 80bd 588c 1c3e 08a5 0bbd cde7 bdbe
00000130: 24b2 1ebb c00b 043e c815 463e 43e9 a5be
00000140: 5c0e 9abd cdc2 8a3e 6a4d 883e 561f 90be
00000150: b3b7 b6bd fb4a da3b 5ce3 fc3d 6b0f 08be
00000160: 22ac 0f3e 2111 383d 6b4d b3be aa41 5ebe
00000170: 8f7a 92be b0fe 41be 0b97 c43c dc6a 2cbe
00000180: a2b8 00be 8fb0 713e a440 963e e5be 90be
00000190: 412f c63d 89b4 0f3d 7dec 6cbe 3a3a 623d
000001a0: c5fd 233d ec78 153d f529 81be 96fa c0bd
000001b0: 97f4 523d 3fb8 9d3e 136b e73d e079 873d
000001c0: 0a5d 65be 28cc 7d3e 26bb 8fbe 5a2b 83be
000001d0: 0462 003e e128 a83e d4e9 35bd b853 97be
000001e0: 5f25 7bbe a7da 15bd ee39 4bbe d441 94bc
000001f0: 785a 79be 26b7 bebd 5de0 643e ceba 833d
00000200: 73c0 b63e 4854 cdbd 521b d2bd 656e 05be
00000210: 45f7 a1be fc99 d0bd aa8a 7dbd 9a85 dabd
00000220: fd73 ca3d f1b9 97be f40a 11be 6bf8 7bbe
00000230: b058 25be 470d 57bd 99ca acbd cbce ae3e
00000240: 7442 9ebe 7063 6b3c 7dd3 f83d 7bad 01be
00000250: 7613 32be 890c dabe 928b 7ebd 3935 b2bd
00000260: a384 03bd 66c2 7f3e 4fcc e23d fb67 bdbe
00000270: 1a60 bfbb 9e43 f0be e84e 2b3e 1220 0bbe
00000280: 4ed5 eabc 635a 3abb 6633 293e d445 9ebe
00000290: e180 853e a153 8e3e afbe b53c b3eb fd3b
000002a0: a65c 86be 30fd e7bd 6b61 93bd e39e f4bc
000002b0: 14d8 533e c560 3abe 041f d1bd 5250 98be
000002c0: 95c2 353e 5bdc 43be 5eb2 4b3e 2ed6 84bb
000002d0: 5a94 8ebe 99d7 573e e4ad 86be 596d 6e3d
000002e0: 8262 903d c06b 2c3e 5d48 19be 6ce8 43bd
000002f0: 08a5 aa3a 51bb a7be 42b6 1b3e 825d 8e3d
00000300: fe6c 803e 6379 873c ab2b e83d 21be 433e
00000310: 1867 b4be c3b3 07be ee14 84be 955f 883e
00000320: 6385 9bbe 59ee a13d 38ee a3bd c194 10be
00000330: 003e 0ebd 8254 af3d d694 013e dc3e 90be
00000340: ad8f 6c3e 28be 48be bc1a 04be ad56 183e
00000350: 7405 1cbe 6b97 1a3e 41ab 833e b4b4 34be
00000360: 7ef2 853e 2a27 c9be 274e 0dbe f243 1bbe
00000370: bda6 8dbd f015 893e c846 ae3c 529f 523e
00000380: ef04 d63c 4d05 94be 69f1 1f3e 4b94 82be
00000390: a7c9 8abe 8d16 1ebd adf4 fbbd 5daf 1abe
000003a0: e105 e13d 891b 72be bab0 9cbe fb95 aabd
000003b0: edb9 853e 69e8 a4be f19a 1f3e 13ca d43c
000003c0: 3d95 df3c 3b06 6ebc dd99 9f3e 2947 98be
000003d0: 40de 3f3e 0251 603e f81b b5be aeb0 2b3e
000003e0: f3aa 8cbe b9fd b2bd 3faa 363e 65aa a6be
000003f0: 1fc7 003d ee87 913d 5b64 4a3e 50e9 8f3c

conv1.bias f4 [32]
-0.25790024 -0.2976571 -0.004006129 0.0060619772 -0.038549706 -0.21202567 -0.013622081 -0.13005605
-0.052456133 -0.27070135 0.0894704 0.11325863 0.14479332 -0.13959847 0.2172612 0.13369873
0.045727454 0.051568136 0.14700453 0.037626963 0.07368984 -0.2563632 0.16711435 -0.14532517
0.099162966 -0.3007408 0.15824887 -0.11469826 -0.32263318 0.029583164 0.29207897 0.05313139
00000000: 800b 84be 8366 98be d945 83bb 8da3 c63b
00000010: 4ce6 1dbd 421d 59be 262f 5fbc 6a2d 05be
00000020: 3edc 56bd 5e99 8abe 423c b73d 24f4 e73d
00000030: b344 143e e7f2 0ebe b879 5e3e 52e8 083e
00000040: b64c 3b3d 1c39 533d 5b88 163e bb1e 1a3d
00000050: b3ea 963d 0a42 83be 0620 2b3e 1fd0 14be
00000060: f415 cb3d b3fa 99be fe0b 223e ece6 eabd
00000070: 2d30 a5be 6458 f23c 608b 953e 4da0 593d

conv2.weight f4 [32, 32, 3, 3]
0.050433297 0.062810384 -0.057760034 0.05739702 0.056785967 0.06636578 -0.093560226 0.016244743
-0.0015077644 0.066410966 0.106812365 0.030039355 -0.008899794 -0.06438262 -0.099321425 -0.09060354
-0.15679267 -0.11204733 0.019725574 0.05564014 -0.016919384 0.02550174 0.020010425 -0.038814
-0.021103 -0.0050662193 -0.058644094 0.010318723 -0.048594493 0.009176736 -0.0026448895 0.042975284
-0.013616436 0.010830324 0.020806408 0.020448124 -0.15048723 -0.071274556 -0.12754846 -0.1005128
-0.1935786 -0.106035225 0.04964447 -0.110329315 -0.04607635 0.11822788 0.041916806 0.050900344
0.043991573 0.118029475 0.03679492 -0.08351599 0.065246 -0.09389848 -0.09528399 0.014076383
-0.10359821 0.011706788 -0.12280514 -0.05168772 -0.046487805 -0.09283005 -0.060039856 -0.1756045
-0.024725767 -0.010463505 -0.16530862 -0.09551305 -0.0016782752 -0.044867363 -0.072384454 -0.046919074
0.18103349 0.050249077 0.00050625065 0.024500724 0.03279052 -0.043252613 -0.060985886 -0.022840817
-0.051796105 -0.10305801 -2.4585956e-05 -0.053574633 -0.15860891 0.010351161 0.039565176 -0.19894569
-0.07406584 0.051776685 0.057733595 0.036125015 0.0052456586 -0.03732622 -0.076656476 0.0017591775
0.04494825 0.035402052 0.047796242 0.07065811 0.02259478 -0.04452996 0.123500064 0.05203515
-0.073250175 -0.031970214 0.021152414 -0.034295782 -0.010563998 0.013351464 0.036410507 0.01836714
0.023292685 -0.046296287 -0.043656528 0.0012369097 -0.09600668 0.05142818 -0.029787827 -0.04425297
0.031365223 0.015467556 0.037817057 -0.059658434 -0.025400378 0.0078428695 0.017746536 -0.011226535
-0.0013901315 -0.026392495 -0.0048551746 -0.052500155 -0.079731785 -0.070382 -0.15656388 0.016858965
0.031170787 -0.019455375 0.044423588 0.009811969 0.014947637 0.026312836 0.10152877 0.09786126
0.090940624 -0.044950906 -0.0030288612 -0.0031698528 0.08201357 0.031110011 0.056351677 -0.04271632
0.044309705 -0.049953014 -0.06671354 -0.057215787 -0.025786558 0.006059868 0.040165845 -0.013790249
-0.076152325 0.05125287 -0.09985789 -0.018904734 0.0050239596 -0.07635271 -0.052373666 -0.07077903
-0.088511355 -0.14115362 -0.12683044 0.00906215 -0.022466999 -0.016720338 -0.010182079 0.013685572
-0.055755496 -0.043123525 -0.028821701 0.009233912 0.08029007 0.0049424036 -0.14327686 0.0046843877
-0.08186974 -0.022988984 -0.1042075 -0.018233428 -0.046807535 0.048983023 0.054792956 0.06515937
0.041796498 0.008788216 -0.10702907 -0.079940945 -0.10735088 -0.20158182 -0.034291193 -0.027547041
0.0044383174 -0.035600204 -0.0070365556 -0.050177664 0.037983008 0.011272391 0.08871739 -0.17418335
-0.09315132 -0.11663119 -0.015843807 -0.05783545 -0.17734359 -0.0334314 0.013105522 -0.05224859
-0.21247715 -0.09326485 -0.12147188 -0.13961193 -0.077712156 -0.07155378 0.022315823 -0.0011529339
0.09081707 -0.019835487 0.08522817 -0.027784092 -0.0027630124 0.051131696 0.0044943537 -0.101508975
-0.032664925 -0.00015740003 0.11531701 -0.034980677 -0.042115957 0.084187195 -0.12658852 -0.11851427
-0.03153168 -0.03163505 0.011248719 0.07373959 0.088576935 0.0154920705 0.12158377 0.12573092
0.060193006 -0.0073548798 -0.026858604 -0.08598866 -0.08389411 0.06264494 0.08153477 -0.13221636
00000000: 2593 4e3d bba2 803d c995 6cbd 2319 6b3d
00000010: 6798 683d c8ea 873d 819c bfbd b213 853c
00000020: 2ea0 c5ba 7902 883d 71c0 da3d 1815 f63c
00000030: 71d0 11bc 09db 83bd 0869 cbbd 598e b9bd
00000040: 428e 20be 1279 e5bd 8797 a13c eae6 633d
00000050: 859a 8abc 06e9 d03c e7ec a33c 6efb 1ebd
00000060: 33e0 acbc 8702 a6bb ca34 70bd dc0f 293c
00000070: 050b 47bd 055a 163c e255 2dbb da06 303d
00000080: 7917 5fbc ac71 313c 3372 aa3c d382 a73c
00000090: 5319 1abe 65f8 91bd 109c 02be a8d9 cdbd
000000a0: 7839 46be ff28 d9bd 0058 4b3d 56f4 e1bd
000000b0: 8eba 3cbd 7521 f23d f5b0 2b3d e17c 503d
000000c0: 8230 343d 70b9 f13d 45b6 163d 6e0a abbd
000000d0: b29f 853d d94d c0bd 4124 c3bd a1a0 663c
000000e0: 4c2b d4bd d4cd 3f3c 4381 fbbd 81b6 53bd
000000f0: ff69 3ebd ae1d bebd 5aec 75bd abd1 33be
00000100: b18d cabc 1f6f 2bbc aa46 29be 599c c3bd
00000110: 92f9 dbba d7c6 37bd 4d3e 94bd 372e 40bd
00000120: d860 393e fad1 4d3d e8b5 043a beb5 c83c
00000130: 5a4f 063d a729 31bd 56cc 79bd aa1c bbbc
00000140: 2728 54bd 1410 d3bd f03d ceb7 1371 5bbd
00000150: 606a 22be ea97 293c 180f 223d 6bb8 4bbe
00000160: d5af 97bd ca13 543d 107a 6c3d d3f7 133d
00000170: c6e3 ab3b 61e3 18bd 12fe 9cbd 3494 e63a
00000180: a81b 383d be01 113d fec5 433d 33b5 903d
00000190: b018 b93c 0c65 36bd 9aed fc3d cf22 553d
000001a0: 3004 96bd 33f3 02bd d447 ad3c bc79 0cbd
000001b0: 9e14 2dbc 19c0 5a3c 2f23 153d af76 963c
000001c0: 4dd0 be3c 2da1 3dbd 30d1 32bd cd1f a23a
000001d0: 269f c4bd 5ba6 523d 9a05 f4bc 9a42 35bd
000001e0: d278 003d a26b 7d3c 0fe6 1a3d 675c 74bd
000001f0: 7414 d0bc 617f 003c 2f61 913c 80ef 37bc
00000200: 1335 b6ba 1335 d8bc 2818 9fbb 670a 57bd
00000210: 6b4a a3bd 7024 90bd 4852 20be d01b 8a3c
00000220: e159 ff3c e160 9fbc 82f5 353d 61c2 203c
00000230: efe6 743c 048e d73c 51ee cf3d 7c6b c83d
00000240: 143f ba3d 711e 38bd dc7f 46bb 4ebd 4fbb
00000250: bbf6 a73d 6cda fe3c 04d1 663d 4ff7 2ebd
00000260: 187e 353d 889b 4cbd 1ca1 88bd 1a5b 6abd
00000270: 553e d3bc db91 c63b f184 243d 7ff0 61bc
00000280: c0f5 9bbd 88ee 513d 4b82 ccbd 1ade 9abc
00000290: 07a0 a43b cf5e 9cbd c585 56bd 99f4 90bd
000002a0: 7145 b5bd 938a 10be d7df 01be 6979 143c
000002b0: b60c b8bc 17f9 88bc bcd2 26bc 7339 603c
000002c0: e05f 64bd 4ba2 30bd 7d1b ecbc d649 173c
000002d0: 1f6f a43d e3f3 a13b 2bb7 12be 7e7f 993b
000002e0: 52ab a7bd 6553 bcbc be6a d5bd 455e 95bc
000002f0: 42b9 3fbd 6ca2 483d 946e 603d 4772 853d
00000300: ce32 2b3d 73fc 0f3c 0f32 dbbd 14b8 a3bd
00000310: c7da dbbd 776b 4ebe ec74 0cbd 55aa e1bc
00000320: 4e6f 913b 85d1 11bd e892 e6bb 1887 4dbd
00000330: 1294 1b3d d6af 383c 77b1 b53d 1f5d 32be
00000340: 1fc6 bebd 55dc eebd dfca 81bc dde4 6cbd
00000350: 8f99 35be 5def 08bd 8bb8 563c 9e02 56bd
00000360: 9c93 59be a401 bfbd 40c6 f8bd 6ef6 0ebe
00000370: 8d27 9fbd ca8a 92bd accf b63c 0b1e 97ba
00000380: 4dfe b93d 087e a2bc 1b8c ae3d 779b e3bc
00000390: a813 35bb 786f 513d 5f45 933b f0e3 cfbd
000003a0: a8cb 05bd c00b 25b9 532b ec3d e647 0fbd
000003b0: c881 2cbd 566a ac3d 6ca0 01be 9cb7 f2bd
000003c0: 5d27 01bd c193 01bd 8c4c 383c c804 973d
000003d0: d367 b53d 74d2 7d3c e900 f93d 9bbf 003e
000003e0: f18c 763d 3401 f1bb 9306 dcbc d31a b0bd
000003f0: add0 abbd fe4b 803d b4fb a63d ba63 07be

conv2.bias f4 [32]
-0.034656443 0.013138695 0.011797828 0.018400665 0.047633648 0.037336994 -0.009860535 0.06502712
-0.010776973 0.01780555 -0.038356088 -0.049593043 -0.051693715 0.049410056 -0.0066951555 -0.015725018
0.07697905 0.020326447 -0.04289897 -0.02340318 0.027905777 -0.041678775 -0.024783324 0.016094003
0.032744065 0.04901965 -0.069120266 0.057353716 0.0064199185 -0.082766585 0.033414494 0.010739111
00000000: eaf3 0dbd ae43 573c ad4b 413c febc 963c
00000010: 801b 433d adee 183d 158e 21bc f02c 853d
00000020: e791 30bc f2dc 913c 461b 1dbd 1322 4bbd
00000030: cabc 53bd 3362 4a3d 0963 dbbb c1d1 80bc
00000040: 31a7 9d3d a683 a63c d5b6 2fbd 07b8 bfbc
00000050: a89a e43c 5db7 2abd 6606 cbbc 92d7 833c
00000060: a41e 063d d4c8 483d ed8e 8dbd bbeb 6a3d
00000070: 2e5e d23b 8781 a9bd a3dd 083d 19f3 2f3c

conv3.weight f4 [64, 32, 3, 3]
-0.06104141 0.063296594 0.017655268 -0.01585615 0.04075689 -0.03188526 -0.057756197 -0.0620243
-0.09232528 0.05182835 0.02176983 -0.07890779 0.045063287 0.0034314767 -0.016800031 0.046801787
-0.062142182 -0.026938997 0.035770845 -0.038740106 -0.11876109 0.042040013 -0.05399907 -0.06419997
0.093436696 0.032222115 0.09744768 -0.11747607 -0.12932663 -0.17247325 0.034346253 -0.05060771
-0.12257169 0.14692931 -0.088768795 -0.12234854 0.09989592 -0.016197477 0.0023156693 -0.024415448
0.01589025 0.008190401 0.024082923 -0.0026035905 -0.0146474745 -0.02079091 -0.12044351 -0.037334632
-0.0040583177 -0.0410388 -0.11881074 0.032543916 -0.08110711 0.051119164 -0.05813453 -0.017544083
-0.09664413 -0.03868395 -0.07755226 -0.10186577 -0.06400523 -0.07499312 -0.05708717 0.11112039
-0.030621426 -0.15502979 0.007246925 -0.026258176 -0.024495365 0.038558718 0.012710137 -0.04654709
0.0553262 0.02527164 -0.11603768 -0.049692634 -0.10110885 -0.054818448 0.0013051296 0.008246361
0.0721731 -0.070152774 -0.008124489 0.05001105 0.07038325 -0.06261081 -0.008727366 0.0068460917
-0.011699646 0.054230787 0.011403172 -0.19390471 -0.012742345 0.046468534 -0.100363806 -0.016976237
0.053461697 -0.0012903311 0.09230448 -0.018748166 -0.015162915 -0.036122367 -0.062423743 0.037199464
0.053264063 -0.010314111 -0.033453666 0.11652271 -0.0728733 -0.06483867 -0.12017108 0.057459828
-0.08888764 -0.050098855 0.086753905 0.028344378 0.108860135 -0.030108402 -0.07307826 -0.013956768
0.039595038 -0.019690838 -0.14005601 -0.08333551 -0.033623297 0.0649174 -0.045858126 -0.12721552
-0.06614683 -0.13506764 -0.19671859 -0.064182326 -0.0504476 -0.08698624 -0.03817864 0.066664584
-0.050662827 -0.13231936 -0.073233366 -0.033185925 -0.1100591 -0.002091422 0.02046808 0.020235963
0.058557864 -0.060826883 -0.099532805 0.08192338 -0.099241436 -0.06213759 0.062324673 -0.02607255
0.05542151 -0.049639937 -0.1664304 -0.058622826 0.050198086 -0.10393251 -0.14217092 0.076549016
0.007793354 -0.07160394 -0.027130196 -0.09584124 0.005150233 0.029585373 -0.07479505 -0.015223818
-0.03508002 -0.011781084 0.07405541 0.064038716 0.094110176 -0.12653895 0.023701502 0.0016044222
-0.0520397 -0.024427151 0.05278029 0.06979416 -0.020921003 -0.09881749 -0.1792928 0.09546867
0.0006979564 -0.048444264 0.01438251 -0.053136352 -0.12211511 0.070910364 0.06525104 -0.03088406
-0.009854996 0.00589985 0.056761935 -0.00943242 0.09546093 0.06478098 -0.024033848 -0.052607134
-0.01179188 0.053479306 -0.059678935 -0.05414407 0.10058027 0.012972066 0.040777463 -0.017374335
-0.115232386 -0.13903753 0.021495309 -0.024632657 -0.020410003 0.02193948 0.048591208 0.076645054
-0.03030157 -0.121821865 -0.07745542 0.08153908 0.00251773 -0.08953782 0.15793692 0.088064894
-0.06506625 0.02290743 -0.08623444 -0.11340318 0.0145387845 -0.03372783 -0.06697603 -0.032173116
0.020364555 -0.026222207 -0.023323365 -0.11947903 -0.07218583 -0.014122557 -0.067422524 0.024595993
0.038980786 0.12545976 0.17082718 -0.016893627 -0.16106312 -0.11018108 0.058796406 -0.0694056
-0.12376621 0.08092821 -0.03979266 -0.0057665026 0.04641437 0.10538115 0.0065446887 0.0013718233
00000000: 8f06 7abd a5a1 813d c8a1 903c c2e4 81bc
00000010: b2f0 263d 1e9a 02bd c391 6cbd 310d 7ebd
00000020: 0915 bdbd f749 543d a456 b23c 689a a1bd
00000030: 4894 383d a0e2 603b 38a0 89bc 3bb3 3f3d
00000040: cd88 7ebd 2caf dcbc 7384 123d f2ad 1ebd
00000050: 0439 f3bd 2632 2c3d 212e 5dbd 467b 83bd
00000060: bd5b bf3d 56fb 033d a692 c73d 4b97 f0bd
00000070: 336e 04be d49c 30be a8ae 0c3d 084a 4fbd
00000080: de06 fbbd a374 163e 6acc b5bd df91 fabd
00000090: 3b96 cc3d 92b0 84bc 7cc2 173b e802 c8bc
000000a0: 452c 823c 0831 063c 8d49 c53c 00a1 2abb
000000b0: f6fb 6fbc b351 aabc 16ab f6bd 33ec 18bd
000000c0: a3fb 84bb 4d18 28bd 0c53 f3bd c54c 053d
000000d0: 7c1b a6bd 5462 513d 791e 6ebd 9cb8 8fbc
000000e0: 5ced c5bd 1073 1ebd b8d3 9ebd 009f d0bd
000000f0: 2d15 83bd fe95 99bd 3dd4 69bd 1693 e33d
00000100: c9d9 fabc 21c0 1ebe 9d77 ed3b 631b d7bc
00000110: 81aa c8bc bfef 1d3d 2e3e 503c 29a8 3ebd
00000120: ba9d 623d 7806 cf3c 2aa5 edbd 818a 4bbd
00000130: 2812 cfbd 4f89 60bd e210 ab3a bf1b 073c
00000140: 7ecf 933d 42ac 8fbd 941c 05bc 63d8 4c3d
00000150: 1825 903d 193a 80bd 3afd 0ebc 2e55 e03b
00000160: dfaf 3fbc 1a21 5e3d 5fd4 3a3c f58e 46be
00000170: 45c5 50bc ca55 3e3d 8a8b cdbd c011 8bbc
00000180: a7fa 5a3d 5420 a9ba 220a bd3d c195 99bc
00000190: e06d 78bc 0cf5 13bd 0ab0 7fbd 775e 183d
000001a0: 6b2b 5a3d 84fc 28bc b606 09bd 75a3 ee3d
000001b0: 993e 95bd 23ca 84bd 411c f6bd ff5a 6b3d
000001c0: b90a b6bd 7534 4dbd 08ac b13d 7832 e83c
000001d0: 10f2 de3d e5a5 f6bc 0eaa 95bd eeaa 64bc
000001e0: 682e 223d ae4e a1bc d86a 0fbe cfab aabd
000001f0: 95b8 09bd 6af3 843d bbd5 3bbd c944 02be
00000200: fd77 87bd 2c4f 0abe 9970 49be 0672 83bd
00000210: 25a2 4ebd d825 b2bd 3561 1cbd 7187 883d
00000220: d383 4fbd ba7e 07be 60fb 95bd f7ed 07bd
00000230: aa66 e1bd 3d10 09bb adac a73c e4c5 a53c
00000240: 5fda 6f3d 9c25 79bd dbd7 cbbd 72c7 a73d
00000250: 183f cbbd fc83 7ebd 2848 7f3d 1a96 d5bc
00000260: aa01 633d 3f53 4bbd bb6c 2abe 7d1e 70bd
00000270: 829c 4d3d 91da d4bd 4195 11be bbc5 9c3d
00000280: 645f ff3b 16a5 92bd 2540 debc 6948 c4bd
00000290: 49c3 a83b 065d f23c 262e 99bd 526d 79bc
000002a0: 11b0 0fbd 7305 41bc 5daa 973d bb26 833d
000002b0: d6bc c03d 6d93 01be a729 c23c 7a4b d23a
000002c0: 9527 55bd 731b c8bc 2530 583d 3ef0 8e3d
000002d0: 8662 abbc d360 cabd 8898 37be 1485 c33d
000002e0: 10f7 363a 7e6d 46bd 9fa4 6b3c 81a5 59bd
000002f0: 7d17 fabd 7439 913d 56a2 853d 9100 fdbc
00000300: d976 21bc 8753 c13b 347f 683d 708a 1abc
00000310: 0581 c33d e4ab 843d a2e2 c4bc 947a 57bd
00000320: bb32 41bc 1e0d 5b3d e671 74bd 2cc6 5dbd
00000330: 07fd cd3d ca88 543c 4506 273d 9f54 8ebc
00000340: f5fe ebbd db5f 0ebe ee16 b03c 6dca c9bc
00000350: e132 a7bc 6dba b33c 9307 473d 15f8 9c3d
00000360: 003b f8bc be7d f9bd f2a0 9ebd f6fd a63d
00000370: 8000 253b 9b5f b7bd 37ba 213e 5e5b b43d
00000380: 7441 85bd 5da8 bb3c af9b b0bd ed3f e8bd
00000390: 1534 6e3c 3126 0abd bb2a 89bd f5c7 03bd
000003a0: 91d3 a63c f4cf d6bc a410 bfbc 6cb1 f4bd
000003b0: 2ad6 93bd 4c62 67bc d214 8abd 897d c93c
000003c0: 51aa 1f3d 8678 003e 52ed 2e3e 8164 8abc
000003d0: bbed 24be 9ea6 e1bd 80d4 703d 8624 8ebd
000003e0: 2479 fdbd b0bd a53d a1fd 22bd eef4 bcbb
000003f0: ff1c 3e3d 13d2 d73d d474 d63b c0ce b33a

conv3.bias f4 [64]
0.03461124 -0.0016512802 -0.05019018 0.11559752 0.08820521 -0.012569387 -0.01231707 -0.060603008
-0.055050343 -0.024655158 -0.06707239 -0.004709426 -0.09286693 0.07616614 -0.063337564 -0.047197577
0.12379532 0.10042241 0.039095562 -0.080264844 0.09378901 0.0053332443 0.103282355 0.27651757
0.03073663 0.21969962 -0.13408919 0.13733126 -0.014193173 0.027736712 -0.06616382 0.03879371
0.14507636 -0.024282858 0.11856836 0.050639715 -0.044515323 0.07209346 -0.047477704 0.061144687
0.07418523 0.014232852 0.01825623 -0.076655984 0.10757536 -0.109986715 0.1367436 0.113837406
0.023660954 0.19394653 -0.035366315 0.045185644 -0.114513256 0.051966827 -0.054733716 0.025784025
-0.04001286 0.019165624 0.12394163 -0.04832496 0.17117488 0.08229899 0.048437648 0.09439056
00000000: 84c4 0d3d c56f d8ba 3894 4dbd 64be ec3d
00000010: efa4 b43d d5ef 4dbc 89cd 49bc dc3a 78bd
00000020: 787c 61bd 9df9 c9bc 405d 89bd 8751 9abb
00000030: 0431 bebd fefc 9b3d 20b7 81bd 3f52 41bd
00000040: 6788 fd3d 44aa cd3d ab22 203d e561 a4bd
00000050: 7414 c03d 7fc2 ae3b b385 d33d b693 8d3e
00000060: 63cb fb3c f0f8 603e ad4e 09be 91a0 0c3e
00000070: 7b8a 68bc 1a38 e33c e680 87bd 27e6 1e3d
00000080: e68e 143e d8ec c6bc f8d3 f23d 976b 4f3d
00000090: b355 36bd bca5 933d fb77 42bd da72 7a3d
000000a0: 6dee 973d e830 693c 178e 953c d0fd 9cbd
000000b0: 7850 dc3d b740 e1bd 8406 0c3e 9623 e93d
000000c0: 9ed4 c13c eb99 463e 45dc 10bd 9514 393d
000000d0: ed85 eabd 2bdb 543d 7630 60bd 0539 d33c
000000e0: 86e4 23bd 3a01 9d3c 1cd5 fd3d 65f0 45bd
000000f0: 7848 2f3e 5f8c a83d 8e66 463d d74f c13d

conv4.weight f4 [64, 64, 3, 3]
0.0017190297 -0.031482324 -0.029840782 0.006851899 -0.025581377 -0.032676756 -0.04057209 -0.005161679
-0.05986655 -0.02190172 -0.0031013605 -0.041487336 -0.047939 -0.018563977 -0.0084022675 -0.032836683
-0.021751791 -0.041592147 -0.024483815 0.0012777597 0.010291287 -0.03063064 -0.010656655 -0.04365108
-0.045279983 -0.015913766 -0.009104261 -0.0077476753 -0.06022878 -0.011305072 0.0023656846 -0.03814634
-0.0026742616 0.01206271 -0.014896881 -0.008160902 -0.031026876 -0.034751203 -0.03707927 -0.011776775
0.015263553 -0.034672298 0.009877347 -0.012716745 -0.031655718 0.024415126 -0.04171098 -0.04519652
0.03818607 -0.012510507 -0.0010867729 0.017803604 -0.029919783 0.022377016 -0.03223231 -0.034405343
0.03354733 -0.026185125 -0.034851693 -0.017144946 -0.041196283 -0.0536107 -0.028585656 0.010267576
-0.014983402 0.00910868 -0.021922434 -0.009609594 0.0049620713 0.0061243363 -0.03552379 -0.018855238
0.0052440343 0.034698557 -0.04578798 0.035599995 -0.037056103 -0.018612461 -0.029428931 -0.03634636
0.020757155 -0.005269226 0.024345867 -0.011631512 0.018071279 0.016121445 -0.0006605011 -0.011143351
-0.018682761 0.0042075114 0.029764306 -0.042263426 0.0033248914 -0.016563836 -0.035142053 0.025067896
-0.06134796 -0.03330774 -0.026255658 0.01836124 0.013377674 -0.02439294 0.02495769 -0.00539279
0.019763108 0.002554465 0.031238746 0.014234375 -0.017843798 0.0100929355 0.017110806 0.012521567
-0.040536094 -0.027237969 -0.026361993 -0.03178822 -0.038546354 -0.03458372 0.026411636 -0.0271153
0.01691186 -0.032957993 -0.025470037 -0.001560511 -0.0065683094 0.027619446 -0.00762612 0.028242964
0.028810624 0.03569058 0.021815902 -0.04512959 -0.01740927 -0.033264693 -0.02764835 -0.055722684
-0.04008844 0.037220586 -0.033247836 0.014525472 -0.040472712 -0.0038429967 -0.02646521 -0.024524478
-0.014155037 0.0061119027 -0.0077939834 -0.026247079 -0.04230364 0.02069588 -0.020587403 -0.041339066
-0.02638914 -0.0039905496 -0.04832874 -0.056742575 -0.021684572 -0.042698108 -0.017662693 0.0032157684
-0.020453319 0.022658803 -0.043540552 0.028182926 0.01682729 0.018919734 -0.0051944656 -0.03723856
-0.035800513 -0.0041856114 -0.03852228 -0.046130005 -0.023214364 -0.02963063 -0.0033296493 0.012804392
0.037051026 -0.030911393 -0.014526048 0.008265791 -0.004368684 -0.016755136 -0.053070463 -0.037552767
0.011385791 0.016657434 -0.001425059 -0.025444994 -0.04339307 -0.01613817 0.014070839 0.0024986262
0.010159784 -0.036543455 0.019384308 0.029922813 -0.029827148 -0.011032495 -0.036443263 -0.027326781
-0.019007945 -0.0097113205 0.02485717 -0.0149231395 0.015444447 -0.035932925 0.024117075 0.009967346
-0.01832088 -0.012456215 0.024394564 -0.026413279 -0.0671749 0.036777772 -0.010891986 -0.045924872
-0.0023626364 -0.05248648 -0.010434655 0.00122135 -0.018170394 -0.026319055 -0.017134298 0.027266402
0.022305094 -0.03865761 -0.0048394967 -0.0032171751 -0.015360926 -0.01923304 0.00031859946 0.011899955
0.019980425 -0.021593852 0.016166674 -0.011587931 -0.003182874 -0.032868925 0.0044233403 -0.017173354
-0.01891765 -0.0398393 -0.03988344 -0.03821453 0.004465034 -0.009374668 -0.014047962 0.035380803
0.037304103 -0.023214402 0.03408263 0.022198409 -0.0053215823 -0.012666446 -0.035435725 -0.039497826
00000000: 1151 e13a 9cf3 00bd a874 f4bc e585 e03b
00000010: 0990 d1bc 10d8 05bd eb2e 26bd 4d23 a9bb
00000020: a136 75bd 3c6b b3bc 3240 4bbb a0ee 29bd
00000030: af5b 44bd 7b13 98bc aaa9 09bc c27f 06bd
00000040: d030 b2bc 875c 2abd 4892 c8bc 807a a73a
00000050: c99c 283c 1ced fabc 4099 2ebc 7acb 32bd
00000060: 8177 39bd 965d 82bc 0a2a 15bc 36e0 fdbb
00000070: 74b2 76bd e938 39bc 9a09 1b3b 563f 1cbd
00000080: aa42 2fbb aca2 453c 0c12 74bc 4eb5 05bc
00000090: 132c febc 4757 0ebd 6fe0 17bd 60f3 40bc
000000a0: fb13 7a3c 8a04 0ebd 99d4 213c e559 50bc
000000b0: 6da9 01bd 3b02 c83c 22d9 2abd fc1f 39bd
000000c0: ff68 1c3d dff8 4cbc 0c72 8eba ddd8 913c
000000d0: 551a f5bc 0150 b73c 0706 04bd 9eec 0cbd
000000e0: ed68 093d 3082 d6bc a6c0 0ebd 8f73 8cbc
000000f0: 6fbd 28bd e596 5bbd 772c eabc 5639 283c
00000100: f17c 75bc 933c 153c ad96 b3bc 8f71 1dbc
00000110: df98 a23b a8ae c83b 6581 11bd 4d76 9abc
00000120: 26d6 ab3b 1320 0e3d 2d8c 3bbd 4dd1 113d
00000130: 24c8 17bd 2979 98bc f114 f1bc ecdf 14bd
00000140: e90a aa3c 79a9 acbb fc70 c73c 1992 3ebc
00000150: 380a 943c 1f11 843c 7a25 2dba 9a92 36bc
00000160: 970c 99bc 2adf 893b 46d4 f33c 6a1c 2dbd
00000170: 6ce6 593b e2b0 87bc 1df1 0fbd 305b cd3c
00000180: 0048 7bbd b26d 08bd 1b16 d7bc 506a 963c
00000190: 082e 5b3c b4d3 c7bc 1274 cc3c 00b6 b0bb
000001a0: 3ee6 a13c d068 273b 66e8 ff3c 4c37 693c
000001b0: 282d 92bc d75c 253c f62b 8c3c 4227 4d3c
000001c0: 2d09 26bd 2922 dfbc 1bf5 d7bc 5d34 02bd
000001d0: c8e2 1dbd a9a7 0dbd 375d d83c e820 debc
000001e0: be8a 8a3c f6fe 06bd 8aa6 d0bc 0f8a ccba
000001f0: f93a d7bb 2d42 e23c 88e4 f9bb ca5d e73c
00000200: 4204 ec3c 4930 123d 43b7 b23c ced9 38bd
00000210: e39d 8ebc 8f40 08bd cb7e e2bc 783d 64bd
00000220: c733 24bd 9d74 183d e22e 08bd 3ffc 6d3c
00000230: b7c6 25bd c9da 7bbb 91cd d8bc 8fe7 c8bc
00000240: 87ea 67bc 5b46 c83b ac64 ffbb 1d04 d7bc
00000250: 9546 2dbd 688a a93c eaa6 a8bc 2753 29bd
00000260: 0a2e d8bc 28c3 82bb 5bf4 45bd e76a 68bd
00000270: d8a3 b1bc 36e4 2ebd 5ab1 90bc a4bf 523b
00000280: b88d a7bc f49e b93c 9457 32bd e1df e63c
00000290: 63d9 893c 8ffd 9a3c 5636 aabb 7687 18bd
000002a0: 8fa3 12bd 7427 89bb 8ac9 1dbd d1f2 3cbd
000002b0: 0d2c bebc efbb f2bc 3f36 5abb 83c9 513c
000002c0: d1c2 173d e439 fdbc a9fe 6dbc 3e6d 073c
000002d0: 2d27 8fbb 1142 89bc 6a60 59bd eed0 19bd
000002e0: 788b 3a3c 2c75 883c 0cc9 baba 0572 d0bc
000002f0: efbc 31bd 3234 84bc 6089 663c febf 233b
00000300: 3975 263c 97ae 15bd d7cb 9e3c b020 f53c
00000310: 1058 f4bc a3c1 34bc 8845 15bd 6adc dfbc
00000320: 8db6 9bbc 3b1c 1fbc 44a1 cb3c 2f80 74bc
00000330: b50a 7d3c 672e 13bd 2c91 c53c 144e 233c
00000340: ac15 96bc 2715 4cbc 1cd7 c73c a960 d8bc
00000350: fe92 89bd 4aa4 163d 4d74 32bc b81b 3cbd
00000360: 76d6 1abb 10fc 56bd 1df6 2abc b515 a03a
00000370: 14da 94bc 0f9b d7bc 3a5d 8cbc ca5d df3c
00000380: 2cb9 b63c 7157 1ebd a494 9ebb 3ed7 52bb
00000390: 65ac 7bbc 9c8e 9dbc b209 a739 07f8 423c
000003a0: fdad a33c 97e5 b0bc f96f 843c 4edb 3dbc
000003b0: c497 50bb 91a1 06bd abf1 903b 22af 8cbc
000003c0: 30f9 9abc 892e 23bd d15c 23bd d786 1cbd
000003d0: 6c4f 923b 3598 19bc 6c29 66bc 76eb 103d
000003e0: 30cc 183d 212c bebc 3a9a 0b3d 70d9 b53c
000003f0: ab60 aebb ed86 4fbc 0d25 11bd 79c8 21bd

conv4.bias f4 [64]
-0.04297489 0.047341723 0.036403004 0.101323634 0.03170516 -0.033077143 0.078643814 -0.042488035
0.083667256 0.11179842 -0.004605347 0.14217925 0.0040898514 0.047215294 0.032702267 0.04787085
0.037139446 0.108570464 0.011740572 0.09484613 -0.03994354 -0.027530748 -0.014690213 -0.0031444198
0.078040704 0.025677523 0.10191362 0.04452566 0.060986232 0.031349905 0.050741438 0.07850209
-0.068280324 -0.040077586 0.027321992 0.1282114 -0.046610307 0.052825302 0.02522113 0.017092537
0.061622474 0.025176315 0.11064949 0.10304573 0.0004907516 -0.01733762 -0.076180525 -0.047255617
0.035025626 0.00027628706 -0.0006466245 0.08556962 -0.025762822 0.12895437 0.012346668 0.09183716
-0.04288766 -0.011318336 0.03728695 0.068304606 0.11026765 0.08687058 -0.008313086 -0.07309263
00000000: 7006 30bd 65e9 413d 511b 153d c482 cf3d
00000010: 45dd 013d e67b 07bd 0210 a13d ef07 2ebd
00000020: bd59 ab3d 92f6 e43d 73e8 96bb 7097 113e
00000030: 2904 863b d364 413d d0f2 053d 3914 443d
00000040: 881f 183d 315a de3d 875b 403c b03e c23d
00000050: d69b 23bd 2a88 e1bc 38af 70bc 9c12 4ebb
00000060: ced3 9f3d ab59 d23c 17b8 d03d 8a60 363d
00000070: b3cc 793d c268 003d 41d6 4f3d b4c5 a03d
00000080: 8ed6 8bbd 6528 24bd 5fd2 df3c d949 033e
00000090: 73ea 3ebd 585f 583d 8b9c ce3c a605 8c3c
000000a0: d967 7c3d 8f3e ce3c 339c e23d a409 d33d
000000b0: c8a5 003a a007 8ebc 8904 9cbd 1b8f 41bd
000000c0: 0877 0f3d 9fda 9039 3c82 29ba 203f af3d
000000d0: 8e0c d3bc 9d0c 043e ae49 4a3c 1f15 bc3d
000000e0: f9aa 2fbd 8b70 39bc 33ba 183d 49e3 8b3d
000000f0: 01d4 e13d 34e9 b13d 9c33 08bc 97b1 95bd

fc1.weight f4 [128, 1024]
0.018020514 0.017845482 0.014972035 0.0067957304 -0.026437491 0.017018128 -0.021954078 0.0065698996
-0.021479093 -0.0019963495 0.026083507 0.020506114 -0.034893025 0.028432537 8.3800405e-05 -0.021035954
-0.109994955 -0.09271673 -0.14312847 -0.056431208 0.00811665 -0.006035296 -0.0011497779 -0.039735153
-0.03173638 0.04128885 0.08081032 -0.0943887 -0.076465406 0.0017498567 0.07202352 -0.04991968
-0.10853883 -0.13526404 -0.049101926 -0.036953308 0.040667586 0.05476862 0.01785081 -0.012709842
-0.032921057 -0.0013005098 0.007867392 -0.083611034 0.0024503134 0.045494746 0.03584368 -0.01964701
0.08506026 0.049513176 0.07566181 -0.058427114 0.00017173777 0.043126293 -0.028645528 -0.061621998
0.04286409 0.038945124 -0.09338426 0.014529288 -0.006011129 0.020457873 -0.043759815 -0.07421565
-0.045604464 -0.045079026 0.035375413 0.03236724 -0.016094252 -0.0062720757 0.076166674 -0.029863551
-0.016479924 0.008762994 0.06538149 -0.043864243 0.03748279 0.10751594 -0.008800242 -0.057013366
-0.007257931 0.02732864 0.030177709 -0.012504005 -0.022346577 -0.0270441 -0.015359711 0.029126953
-0.008507479 0.0040494944 0.00047774293 0.0058747963 0.020412927 0.018462624 0.0051484127 0.012391539
-0.1295581 0.001143254 0.005141639 0.0026229594 -0.030350696 0.025376894 -0.004955017 -0.03657816
0.14494671 -0.038775913 0.07534644 0.0035725038 0.0688807 -0.003942591 0.09305333 -0.05714959
-0.067286074 -0.014069604 0.037097372 0.05341679 -0.0628436 -0.042631578 -0.032016024 0.012571088
-0.08716115 0.020830404 -0.03780708 -0.018464088 0.01781636 0.047800265 -0.04709204 -0.09882606
-0.009748255 0.17264467 0.050114676 0.029283483 0.064332545 0.0012934875 -0.047664158 -0.0762936
0.052661218 -0.040189385 -0.005784762 -0.0010732365 -0.026247775 -0.0013696104 -0.04870374 -0.07852449
-0.0745596 -0.057103064 0.055452816 0.13783225 -0.1571285 -0.075284615 0.012610859 -0.0011221311
0.022546299 -0.004256303 -0.08081886 -0.014831611 0.03740208 0.029699076 -0.0808233 -0.07523321
-0.0206589 -0.09302634 -0.07816367 -0.07332807 -0.10610624 -0.07912549 -0.010047576 0.055288054
-0.06962563 -0.11563284 -0.020391041 -0.02867103 -0.13140783 -0.16185209 -0.018797172 -0.04908082
-0.0047097006 0.074639834 0.14062488 -0.01724741 0.051259533 0.08807253 0.032402672 -0.036466718
0.05669074 0.02784255 -0.03135554 0.14496017 0.0075898366 0.10603865 0.03984219 0.07024103
-0.09357073 -0.088291876 -0.071154684 -0.043597553 0.008590595 0.040771607 -0.09757034 -0.11900237
-0.13915776 -0.071198 -0.08180066 -0.102060564 0.029061062 0.00852307 -0.0013151658 -0.09482723
-0.0772003 -0.026650546 0.008027235 0.058641378 -0.043806795 -0.1024206 0.08429817 0.019715756
-0.03414129 -0.10998708 0.01590055 -0.02627573 0.007306864 -0.004616576 0.051623587 0.033830877
-0.079148285 -0.050171275 0.05309012 -0.008164047 -0.105034836 -0.014411966 0.052024905 0.06598141
-0.051894 0.0061313435 0.085750826 -0.05009645 0.04805056 0.09234593 0.024360025 -0.050096836
0.0053202217 0.05850012 0.0017959002 0.005587578 0.018966127 -0.039497554 -0.033153523 -0.04396716
-0.0155925425 -0.059455823 0.06899047 0.043200318 -0.047255978 0.10916853 0.09267557 -0.021171292
00000000: c29f 933c b030 923c 444d 753c b8ae de3b
00000010: 7093 d8bc 9a69 8b3c 0ad9 b3bc 5048 d73b
00000020: ecf4 afbc 30d5 02bb 14ad d53c 70fc a73c
00000030: fdeb 0ebd 5aeb e83c 00be af38 9853 acbc
00000040: 0945 e1bd 45e2 bdbd 4590 12be 6924 67bd
00000050: b3fb 043c bbc3 c5bb 25b4 96ba 54c1 22bd
00000060: 02fe 01bd 7f1e 293d e27f a53d dd4e c1bd
00000070: e599 9cbd 735b e53a 1181 933d 9478 4cbd
00000080: 9b49 debd a882 0abe 1a1f 49bd 5a5c 17bd
00000090: 0e93 263d 0f55 603d dd3b 923c f13c 50bc
000000a0: 3bd8 06bd de75 aaba 3ce6 003c 433c abbd
000000b0: 7095 203b b358 3a3d d3d0 123d c4f2 a0bc
000000c0: 1334 ae3d 54ce 4a3d 94f4 9a3d 4551 6fbd
000000d0: 8214 3439 32a5 303d 07aa eabc 5967 7cbd
000000e0: 4292 2f3d ec84 1f3d 3f40 bfbd 400c 6e3c
000000f0: 01f9 c4bb 4597 a73c 7e3d 33bd 60fe 97bd
00000100: bfcb 3abd c9a4 38bd cfe5 103d 8393 043d
00000110: 18d8 83bc fc85 cdbb 46fd 9b3d 68a4 f4bc
00000120: e800 87bc a992 0f3c bbe6 853d feaa 33bd
00000130: 8e87 193d 5131 dc3d e42e 10bc d986 69bd
00000140: f0d3 edbb 50e0 df3c 3e37 f73c 99dd 4cbc
00000150: 2b10 b7bc 978b ddbc 4ca7 7bbc a69b ee3c
00000160: f462 0bbc 9fb1 843b 9279 fa39 5d81 c03b
00000170: 0339 a73c ee3e 973c 04b4 a83b e205 4b3c
00000180: e1aa 04be 3dd9 953a 327b a83b f5e5 2b3b
00000190: 06a2 f8bc 34e3 cf3c b25d a2bb fbd2 15bd
000001a0: e96c 143e 7ed3 1ebd 3c4f 9a3d ab20 6a3b
000001b0: 5311 8d3d da30 81bb bf92 be3d b015 6abd
000001c0: 48cd 89bd 3284 66bc 6af3 173d 90cb 5a3d
000001d0: 25b4 80bd 739e 2ebd 3c23 03bd f7f6 4d3c
000001e0: 8c81 b2bd 86a4 aa3c 99db 1abd 0042 97bc
000001f0: 9df3 913c 36ca 433d 95e3 40bd 5165 cabd
00000200: 25b7 1fbc c4c9 303e 0c45 4d3d eae3 ef3c
00000210: c8c0 833d 3d8a a93a 7e3b 43bd d23f 9cbd
00000220: 4ab3 573d a09d 24bd 1a8e bdbb d7ab 8cba
00000230: 9305 d7bc 8084 b3ba 937d 47bd 73d1 a0bd
00000240: b4b2 98bd e7e4 69bd 7e22 633d e623 0d3e
00000250: 4be6 20be d22e 9abd c79d 4e3c 7914 93ba
00000260: 04b3 b83c 7578 8bbb 5c84 a5bd 4900 73bc
00000270: ec32 193d 7a4b f33c b086 a5bd df13 9abd
00000280: da3c a9bc 9884 bebd 4614 a0bd 072d 96bd
00000290: 3a4e d9bd 8b0c a2bd 979e 24bc ba75 623d
000002a0: e297 8ebd e9d0 ecbd 1d0b a7bc 82df eabc
000002b0: c68f 06be 8ebc 25be 87fc 99bc f808 49bd
000002c0: d553 9abb c5dc 983d f8ff 0f3e 714a 8dbc
000002d0: 84f5 513d 5f5f b43d aab8 043d 205e 15bd
000002e0: 8d34 683d 0f16 e43c ab6e 00bd 7070 143e
000002f0: 2ab4 f83b cb2a d93d 9031 233d 87da 8f3d
00000300: 03a2 bfbd 5fd2 b4bd 8cb9 91bd 5993 32bd
00000310: 91bf 0c3c 2100 273d f5d2 c7bd 84b7 f3bd
00000320: 5f7f 0ebe 42d0 91bd 1b87 a7bd 2105 d1bd
00000330: 7711 ee3c 59a4 0b3c a461 acba c734 c2bd
00000340: 311b 9ebd 3f52 dabc aa84 033c f131 703d
00000350: c16e 33bd e4c1 d1bd 85a4 ac3d f082 a13c
00000360: bdd7 0bbd e840 e1bd df41 823c 3340 d7bc
00000370: 6b6e ef3b a546 97bb 4173 533d 3f92 0a3d
00000380: 7f18 a2bd 6580 4dbd 0775 593d 7fc2 05bc
00000390: 811c d7bd 2b20 6cbc 1118 553d 4321 873d
000003a0: ce8e 54bd 70e9 c83b 219e af3d ef31 4dbd
000003b0: aad0 443d dd1f bd3d ad8e c73c 5732 4dbd
000003c0: 4155 ae3b d29d 6f3d 6964 eb3a 0018 b73b
000003d0: da5e 9b3c 30c8 21bd fdcb 07bd e916 34bd
000003e0: dd77 7fbc f387 73bd e04a 8d3d d1f2 303d
000003f0: 7c8f 41bd c093 df3d b0cc bd3d 6b6f adbc

fc1.bias f4 [128]
0.1621439 -0.010214149 -0.0097047165 -0.040537126 -0.02847019 0.0035592637 0.041222565 -0.05272346
0.022329044 0.0403499 0.07559129 0.052577022 -0.037696995 0.032324992 0.05032326 -0.0444416
-0.024383225 0.1724443 0.012036607 -0.027456379 0.05218275 0.09134402 0.03585019 -0.028334426
0.041546978 0.04567254 0.039757196 0.07653437 -0.011936447 0.014583045 -0.0336282 -0.037708357
-0.057141863 0.010215605 0.2065277 -0.092229135 -0.013947673 -0.05255953 -0.020512957 0.06386496
-0.016740022 0.099831805 0.019684754 -0.0475174 -0.004015597 0.049837887 -0.020400492 -0.04988467
0.010414924 -0.035000682 -0.024513451 -0.037150845 0.034902934 0.0799572 0.101104796 -0.015088497
0.030791884 0.0356297 0.009188904 0.014111619 -0.004194587 0.063215174 0.0009910624 -0.037559614
-0.021768842 0.039422162 -0.042342164 -0.06250595 0.010488412 0.090640455 0.0892232 0.07819299
-0.031524472 0.16331197 0.032158438 -0.05444093 0.075505175 0.0090611745 0.02249075 0.13225146
0.11515291 0.1928352 -0.033209115 0.011511903 0.09152427 0.053522047 0.0231103 0.10431259
-0.04802579 0.04704835 -0.00023396492 0.11370154 0.025482938 -0.061935287 -0.011910985 0.053361494
0.090458706 0.100324415 0.038835037 0.045435715 0.034285583 -0.0022745193 -0.033658985 0.103865
0.052508958 0.042476557 0.024132084 0.11228698 -0.06654849 0.10802438 0.13178933 0.037190683
0.016676284 0.02347269 -0.014644936 0.18360445 0.023063399 -0.06472397 0.04704839 0.018551381
0.057648487 0.012444507 -0.024273299 0.06227767 0.022102334 0.042645186 -0.046520386 0.026909253
00000000: 0d09 263e 3f59 27bc 8800 1fbc 420a 26bd
00000010: 513a e9bc 8942 693b fed8 283d 8ef4 57bd
00000020: 66eb b63c f045 253d 9bcf 9a3d 015b 573d
00000030: 2a68 1abd 3667 043d c31f 4e3d 6508 36bd
00000040: 54bf c7bc 3d95 303e 3035 453c 33ec e0bc
00000050: 94bd 553d 9312 bb3d a6d7 123d 991d e8bc
00000060: 2a2d 2a3d 2113 3b3d 71d8 223d 0dbe 9c3d
00000070: 1691 43bc b9ed 6e3c b9bd 09bd 1474 1abd
00000080: 960d 6abd 5a5f 273c ff7b 533e a1e2 bcbd
00000090: c884 64bc a948 57bd ca0a a8bc a2cb 823d
000000a0: 5f22 89bc 9e74 cc3d ec41 a13c 9ba1 42bd
000000b0: 4595 83bb d022 4c3d ef1e a7bc de53 4cbd
000000c0: 5ba3 2a3c e05c 0fbd 6fd0 c8bc 7c2b 18bd
000000d0: 61f6 0e3d 9ac0 a33d 0810 cf3d be35 77bc
000000e0: 433f fc3c 73f0 113d 0f8d 163c 6c34 673c
000000f0: bf72 89bb f576 813d 89e6 813a 1cd8 19bd
00000100: 9254 b2bc 2279 213d fa6e 2dbd 1f03 80bd
00000110: 97d7 2b3c b4a1 b93d a7ba b63d a523 a03d
00000120: ce1f 01bd 413b 273e 91b8 033d 74fd 5ebd
00000130: 75a2 9a3d 5275 143c 853e b83c ed6c 073e
00000140: 4ad5 eb3d 9776 453e 4806 08bd 6c9c 3c3c
00000150: 1471 bb3d ef39 5b3d d051 bd3c d7a1 d53d
00000160: b1b6 44bd c5b5 403d 7b54 75b9 5adc e83d
00000170: 98c1 d03c dbaf 7dbd 4b26 43bc 9591 5a3d
00000180: 6a42 b93d e376 cd3d 7d11 1f3d cd1a 3a3d
00000190: 0a6f 0c3d 1a10 15bb 01de 09bd 2cb7 d43d
000001a0: a213 573d e6fb 2d3d a6b0 c53c b7f6 e53d
000001b0: 934a 88bd e33b dd3d c8f3 063e 4255 183d
000001c0: b49c 883c cc49 c03c 50f1 6fbc ce02 3c3e
000001d0: 74ef bc3c 008e 84bd d0b5 403d 11f9 973c
000001e0: d220 6c3d 0ce4 4b3c ccd8 c6bc df16 7f3d
000001f0: f40f b53c b8ac 2e3d 298c 3ebd cb70 dc3c

fc2.weight f4 [10, 128]
-0.04179293 -0.007811312 -0.06727591 0.06933912 0.017522026 0.07988903 0.009584562 -0.07776253
0.021007854 0.06839857 -0.07214801 -0.080884695 -0.11251174 -0.09885994 -0.07742537 0.050581932
0.07898342 0.07882696 -0.0020090924 0.058804303 0.053525597 -0.04083892 0.059154764 0.033680618
0.07670982 -0.14644368 -0.043463066 -0.033376623 -0.12055147 -0.0611694 0.09917859 0.020606743
-0.025089553 -0.011316356 -0.17011365 -0.070483364 -0.045268346 -0.052492335 0.05036363 -0.17266604
-0.07684928 -0.026123397 -0.05689214 0.04882564 -0.09790077 -0.15964067 0.01445865 0.05185355
-0.04650057 -0.06413757 -0.06613498 0.0447571 -0.09990986 -0.1174028 -0.15992217 -0.032914493
-0.11084758 0.057674695 -0.12778512 -0.050802298 -0.069910824 0.035666417 -0.12683724 -0.022195194
0.075446755 -0.11918062 -0.10827706 -0.15322003 -0.15204717 -0.09614394 0.14675929 -0.004419184
-0.19510625 -0.0735766 0.05503172 0.030194154 -0.013602169 -0.066842005 -0.04124169 -0.08371541
-0.09695314 -0.026276136 -0.045631383 -0.1516619 0.022901546 0.049137037 -0.04343387 0.09947489
-0.094703674 -0.02102753 -0.052517775 -0.054486472 0.07755694 0.032973632 -0.0767611 -0.080517754
0.03158468 0.05859913 -0.11580658 -0.044953763 -0.13073942 0.12412136 -0.0018415062 -0.11263453
-0.20232175 0.11526275 -0.05814071 0.07522208 -0.13545395 -0.17034645 -0.01951919 0.0031759979
0.045186654 -0.11574423 0.049426414 -0.0492587 0.080593616 0.011933415 0.027454464 0.027807139
-0.09314083 -0.049329318 -0.032387856 -0.15652615 -0.04423355 -0.0064385203 -0.003903584 0.01840422
0.1263656 0.008756748 0.0535558 -0.08297279 -0.08104765 -0.090485245 -0.03252651 -0.002215841
-0.13052097 0.00467339 0.07882506 0.057024855 -0.12231756 0.08195377 0.038685165 0.02824464
-0.037726406 0.16048817 0.028051658 0.01882821 0.009601244 0.09174257 -0.020425478 -0.079586856
-0.15710838 -0.037874013 0.090589575 0.08218755 0.13334505 0.018423863 -0.010333016 -0.032404073
0.045507163 -0.089458756 0.08294059 -0.11389545 0.0084825605 -0.057229757 -0.06034959 0.000664425
-0.07230707 0.05990287 -0.058464445 -0.052290883 -0.043044977 0.055052463 -0.12864122 -0.013209883
0.09101645 -0.06800348 0.042992976 -0.13373324 -0.020920627 0.05197226 0.071478784 -0.11522138
0.0720609 -0.13667694 -0.011168262 -0.05319031 -0.09053629 -0.027965514 -0.050918505 -0.06960671
-0.15459146 -0.027265936 -0.14920378 -0.049860943 -0.06301556 0.06936941 0.051991493 0.03856842
-0.050719157 0.12368571 -0.2467834 -0.048758972 0.12348582 -0.004859537 0.099460065 0.09415781
0.041450594 0.06496633 -0.08943912 -0.117083184 0.061896585 -0.043968134 -0.009600662 0.03436895
-0.10361391 -0.09315742 -0.054724 0.07952027 -0.15074219 -0.10963736 0.031042265 0.0182319
0.07932267 0.071025945 0.04391867 0.05930855 0.01097093 0.011352518 -0.08722015 0.060495663
0.04228292 -0.081534535 -0.15097117 0.07151523 -0.19472551 0.063048154 0.055448346 -0.027208474
-0.15094052 0.079961665 -0.034283686 0.16145818 -0.13476305 -0.0021858627 -0.05498776 0.051128507
0.13139658 0.04742446 -0.12809189 0.09350164 -0.011529422 0.04216052 -0.053521886 -0.056324203
00000000: 102f 2bbd 09f6 ffbb f4c7 89bd ab01 8e3d
00000010: 5a8a 8f3c dc9c a33d 9108 1d3c f641 9fbd
00000020: aa18 ac3c 8d14 8c3d 56c2 93bd e0a6 a5bd
00000030: 8e6c e6bd 1577 cabd 3191 9ebd 002f 4f3d
00000040: 0fc2 a13d 0770 a13d faaa 03bb c8dc 703d
00000050: a83d 5b3d b646 27bd 444c 723d b0f4 093d
00000060: 0a1a 9d3d 55f5 15be 5406 32bd edb5 08bd
00000070: b0e3 f6bd c48c 7abd 251e cb3d 79cf a83c
00000080: 9b88 cdbc 3d68 39bc 4632 2ebe 9559 90bd
00000090: 4d6b 39bd 3402 57bd 184a 4e3d 5ecf 30be
000000a0: 2863 9dbd bc00 d6bc bc07 69bd 65fd 473d
000000b0: 3380 c8bd d878 23be f9e3 6c3c 6364 543d
000000c0: 6277 3ebd 8f5a 83bd c771 87bd 3953 373d
000000d0: 8a9d ccbd e170 f0bd a3c2 23be 59d1 06bd
000000e0: 0e04 e3bd 4d3c 6c3d 1ada 02be 1216 50bd
000000f0: 682d 8fbd f316 123d 9fe1 01be b2d2 b5bc
00000100: d483 9a3d f814 f4bd 5dc0 ddbd b6e5 1cbe
00000110: 41b2 1bbe 1de7 c4bd 1148 163e cdce 90bb
00000120: efc9 47be 54af 96bd f168 613d bb59 f73c
00000130: a2db 5ebc 76e4 88bd 0ced 28bd fc72 abbd
00000140: 5e8f c6bd 0d41 d7bc f9e7 3abd 424d 1bbe
00000150: 069c bb3c eb43 493d b7e7 31bd 7eb9 cb3d
00000160: 00f4 c1bd ed41 acbc e11c 57bd 352d 5fbd
00000170: 2cd6 9e3d 5c0f 073d ec34 9dbd 7ee6 a4bd
00000180: f05e 013d a405 703d 002c edbd 7021 38bd
00000190: 8ee0 05be 5733 fe3d b25e f1ba efac e6bd
000001a0: 6f2d 4fbe e00e ec3d f424 6ebd 090e 9a3d
000001b0: 71b4 0abe 4d6f 2ebe b5e6 9fbc 6724 503b
000001c0: a415 393d 500b edbd 5a73 4a3d 7ec3 49bd
000001d0: 440e a53d 5f84 433c 2fe8 e03c cccb e33c
000001e0: 9fc0 bebd 8a0d 4abd 21a9 04bd 6448 20be
000001f0: 3d2e 35bd 39fa d2bb 46d3 7fbb 72c4 963c
00000200: fc65 013e 7778 0f3c 545d 5b3d a3ed a9bd
00000210: 4ffc a5bd 5450 b9bd 853a 05bd a537 11bb
00000220: 4aa7 05be 3d23 993b 086f a13d e592 693d
00000230: a181 fabd 61d7 a73d 5674 1e3d 4e61 e73c
00000240: 0187 1abd 0357 243e 97cc e53c 9e3d 9a3c
00000250: 894e 1d3c 87e3 bb3d 5553 a7bc 6ffe a2bd
00000260: 05e1 20be c821 1bbd 0787 b93d f251 a83d
00000270: 9b8b 083e a4ed 963c cf4b 29bc 22ba 04bd
00000280: b865 3a3d 2736 b7bd c2dc a93d 0542 e9bd
00000290: 70fa 0a3c c069 6abd 2231 77bd cf2c 2e3a
000002a0: bb15 94bd b65c 753d 6a78 6fbd f72e 56bd
000002b0: ee4f 30bd b17e 613d 86ba 03be 446e 58bc
000002c0: d566 ba3d 6945 8bbd 6719 303d 5ef1 08be
000002d0: bc61 abbc dde0 543d 7863 923d 30f9 ebbd
000002e0: aa94 933d 0af5 0bbe 16fb 36bc 15de 59bd
000002f0: 176b b9bd ef17 e5bc ec8f 50bd f68d 8ebd
00000300: 394d 1ebe d05c dfbc e0c8 18be fd3a 4cbd
00000310: 4d0e 81bd 8d11 8e3d 08f5 543d ebf9 1d3d
00000320: e4be 4fbd ef4e fd3d cab4 7cbe 7db7 47bd
00000330: 22e6 fc3d c03c 9fbb b8b1 cb3d cfd5 c03d
00000340: 19c8 293d 110d 853d db2b b7bd 4fc9 efbd
00000350: 4687 7d3d ee17 34bd 184c 1dbc 75c6 0c3d
00000360: 8833 d4bd 51c9 bebd 4626 60bd 86db a23d
00000370: 295c 1abe 8d89 e0bd 594c fe3c 115b 953c
00000380: ed73 a23d 0d76 913d 10e4 333d 86ed 723d
00000390: 6abf 333c e9ff 393c 7aa0 b2bd 4dca 773d
000003a0: db30 2d3d 94fb a6bd 3098 1abe 9476 923d
000003b0: 2066 47be 641f 813d ce1d 633d 4ee4 debc
000003c0: 2790 1abe f1c2 a33d 0d6d 0cbd 4b55 253e
000003d0: 53ff 09be b140 0fbb d83a 61bd 206c 513d
000003e0: d38c 063e 2740 423d 852a 03be ca7d bf3d
000003f0: e7e5 3cbc 82b0 2c3d c439 5bbd 35b4 66bd

fc2.bias f4 [10]
0.05605929 0.23041439 -0.0071468162 -0.03207118 -0.0962719 -0.13583703 0.0039094915 0.009142355
0.010506483 -0.026545832
00000000: 6d9e 653d c0f1 6b3e d72f eabb 125d 03bd
00000010: 342a c5bd dd18 0bbe 311b 803b d1c9 153c
00000020: 6223 2c3c a576 d9bc
