front_end_web/onnx_model.onnx (onnx, 791453 bytes, 12 tensors)

conv1.weight f4 [32, 1, 3, 3]
000000 e8 2d 88 be 60 f0 e4 3b 5a 4f 66 3d ba 7f ab 3e
       -0.26597524 0.0069866627 0.05622802 0.33495885
000010 39 05 0b 3d 1c cd 7c be dc 2f 31 3e 5d b7 57 be
       0.033940528 -0.24687618 0.17303413 -0.21066041
000020 cf c1 c2 3c 7b 68 1a be f0 a0 e0 bd 25 d6 23 3d
       0.023774056 -0.15078919 -0.109681964 0.039999146
000030 38 32 49 3e 03 a0 c4 3d 54 79 33 be 11 20 8f be
       0.19648063 0.09600832 -0.17526752 -0.27954152
000040 c6 68 66 bc 06 86 48 be c0 62 c5 3d be 8f de be
       -0.014063066 -0.19582376 0.09637976 -0.43469042
000050 1c 78 ad be bb c9 14 3d 7a a4 60 3d 12 6a 17 be
       -0.338807 0.036325198 0.054844357 -0.14786556
000060 9b 0a 39 3e 48 7d e6 3d ef 87 b7 3e 07 52 47 3d
       0.18070452 0.11254364 0.35845897 0.04866221
000070 d4 77 4c bd 9e 37 18 be 7e ff 35 bd 54 85 55 bd
       -0.049918965 -0.14864966 -0.04443311 -0.052129105
000080 cc af 5b 3d 65 4a e7 3c 22 db f4 bc f5 0f 11 bd
       0.05363445 0.028233716 -0.029889647 -0.03541561
000090 10 f4 7c 3b 6c 79 78 bc d5 9d a2 3c e8 60 2a be
       0.003859762 -0.015165668 0.01985065 -0.1663853
0000a0 e0 db 49 be 9b c4 8b bd b0 d2 81 3d 1b 06 82 3d
       -0.19712782 -0.06824609 0.063390136 0.06348821
0000b0 af b5 86 be 79 67 96 3e d1 c7 94 bc 99 ab 83 be
       -0.2631049 0.29375818 -0.018161686 -0.25716856
0000c0 ca af bd bb ab b2 13 3e c5 c0 98 be 88 d3 55 be
       -0.005788778 0.14423625 -0.2983457 -0.20881474
0000d0 8c b9 90 3e 16 a7 e4 bc f6 ca 63 bd 06 2a 61 3d
       0.2826656 -0.027911704 -0.05561348 0.054971717
0000e0 2d 12 87 bd 26 27 a0 be 7d 26 64 3e 9a 66 be be
       -0.06595264 -0.31279868 0.22280307 -0.37187654
0000f0 31 e5 36 be cc 41 0d 3c 00 5c 42 bd 49 9b c8 3c
       -0.17860867 0.008621644 -0.04745102 0.024488108
000100 b3 f3 00 be fd 37 ac 3b 5e b5 aa bd 96 f1 71 3d
       -0.12592964 0.0052556978 -0.08335374 0.059068285
000110 8c e9 c5 bd 11 0e ed bd 55 4d 53 bc ca 05 13 bd
       -0.09663686 -0.115749486 -0.012896855 -0.035894193
000120 be 38 a8 3d 8f 6a a8 bd b0 2b 83 3e 95 a7 3b 3e
       0.08213948 -0.082234494 0.25619268 0.18325646
000130 e0 f5 e5 be a8 06 76 bd 0c 7d a9 bd b6 af 91 3d
       -0.4491415 -0.06006494 -0.08275804 0.07113592
000140 18 02 1b 3e e6 a8 fc bc 13 cb 77 3e 97 2b 87 3d
       0.15137517 -0.030842256 0.2419856 0.06600111
000150 4b 9b 4f be 3b af 9a be ef 1f de bd ff ee 5a 3e
       -0.20274083 -0.30211815 -0.108459346 0.21380232
000160 c8 51 ac 3c f7 41 ff 3d 5e ea 28 be 1d 9d e1 3d
       0.02103509 0.12463754 -0.16495654 0.11016295
000170 63 97 6a 3d b1 2b 9e be f4 a1 8f bb 76 09 a8 be
       0.05727328 -0.3089271 -0.00438332 -0.32819718
000180 80 31 6c 3d 35 1e c9 3d 36 5b 8f bc 7a 4a 70 be
       0.057664394 0.09820215 -0.017499547 -0.2346591
000190 e5 8a 0c 3e d9 f7 8f bc 5b 44 2b bd 6b 1c 1b 3d
       0.13724859 -0.017574238 -0.041813236 0.0378689
0001a0 24 25 51 be 65 10 33 3e a9 23 bb 3c 2d 8d 41 be
       -0.20424324 0.17486723 0.022844153 -0.1890151
0001b0 5b 7d 3b 3e 61 2d 05 3e 4a e4 b2 be 50 a3 86 bd
       0.18309538 0.13005592 -0.34939796 -0.06574118
0001c0 d2 2c 6e be e8 7a 51 3e e4 b7 9f bd e3 53 e0 3c
       -0.23259285 0.20457041 -0.07798746 0.02738375
0001d0 78 2f 84 bd b1 10 60 bc 15 31 08 be 5c 78 10 bc
       -0.064543664 -0.013675855 -0.13299973 -0.008817758
0001e0 11 5a 84 be fe 55 4c 3e 70 db 48 be 6a b0 2f be
       -0.25849965 0.19954678 -0.19614959 -0.1715714
0001f0 91 68 13 3d 02 bd fa bd 29 cb 99 3d 66 45 b8 be
       0.035988394 -0.12243082 0.07509453 -0.35990447
000200 c2 28 0d be 08 c1 20 be 47 a2 20 3c bc 40 45 3e
       -0.13785079 -0.15698636 0.009804315 0.19262975
000210 7f 16 cb 3e a8 17 6c be 6a 19 93 be 64 83 0e 3d
       0.396656 -0.23055899 -0.28730327 0.034793273
000220 c6 18 31 be fe e7 18 bd 2a a0 9f 3d e4 7f e1 3d
       -0.17294607 -0.03733062 0.07794221 0.11010721
000230 1b b8 38 be bb 2d 03 bd f3 dc 98 be 5e f5 0d 3e
       -0.1803898 -0.032026034 -0.2985607 0.13863131
000240 b7 14 2d bd 9b 4e 6b 3e dc 30 ab 3e 6f c5 8c be
       -0.042256083 0.22979204 0.33435714 -0.2749438
000250 f1 8e ad bd b2 52 46 bb bc ff be bd 1d 0b db be
       -0.084745295 -0.0030261693 -0.09326121 -0.42781916
000260 67 f9 84 be 73 28 63 bd 77 e5 df bd 4c 6d 02 3e
       -0.2597153 -0.055458497 -0.10932439 0.12737006
000270 81 3d ab 3b e1 07 d2 bc b9 64 89 bd a5 a7 b2 be
       0.0052258377 -0.025638523 -0.067086644 -0.34893528
000280 1e 4c d5 bd 07 16 37 3e 0f 09 10 3d a4 22 f0 bc
       -0.10414909 0.17879497 0.03516489 -0.029313393
000290 77 e6 91 be c3 44 c4 3b 1c 8e 1a be e4 a8 a7 3e
       -0.28496143 0.0059896423 -0.15093273 0.3274604
0002a0 41 1f 5e be 7e 65 41 3e fe be 79 be 4a 38 7d bd
       -0.2169161 0.18886372 -0.24389264 -0.06182126
0002b0 77 3c d0 bd 26 e8 37 bd 27 8c 41 be eb 75 71 3e
       -0.10167783 -0.04489913 -0.1890112 0.23580138
0002c0 72 fc 1d be 89 a1 d4 bd 58 ab d4 bd c4 a1 39 bd
       -0.15428331 -0.10382373 -0.10384244 -0.045320287
0002d0 d0 1e 92 be d0 e6 68 3e 05 9f 2c 3e 19 eb b8 be
       -0.28539133 0.22744298 0.16857536 -0.36116865
0002e0 1a 1d 44 be d3 37 65 3e f8 35 54 3e 30 2c c3 bd
       -0.19151726 0.22384576 0.20723712 -0.095299125
0002f0 5e 55 26 bc 86 cb 9d bd f2 1c 91 bd 2a 7a ce 3a
       -0.010152189 -0.07704835 -0.07085599 0.001575296
000300 46 7c 6e 3e 23 14 46 be d4 1e e4 bd a4 ae 1c bc
       0.23289594 -0.19343619 -0.111386925 -0.009563122
000310 a2 4c 4a be 61 70 99 3e 02 d1 9b be aa 9a 72 be
       -0.19755796 0.2996855 -0.30432898 -0.23691812
000320 9e 7f 19 be c5 0d 0a bd 36 ba 2d be 32 86 b7 be
       -0.14990088 -0.033704538 -0.16965565 -0.3584457
000330 37 20 7b 3e 53 c8 43 be 2b e4 10 be fc c8 8b bd
       0.24524008 -0.19119386 -0.14149539 -0.06825444
000340 aa c2 69 3d 47 e2 19 be e5 1a 37 bd d8 08 a0 bd
       0.05707041 -0.15027724 -0.044703383 -0.07814187
000350 90 86 13 3e 5a cb 62 be 51 e6 b8 3d c9 a5 2c be
       0.144068 -0.22147885 0.09028304 -0.16860117
000360 e1 92 05 bd b2 61 98 be 47 10 01 be 65 33 29 bd
       -0.032610778 -0.29762036 -0.12603866 -0.04130878
000370 9e 4d bb 3e 9d 3b 74 3e c3 33 e0 bd fe 0b 72 be
       0.36582655 0.23850866 -0.10947373 -0.23637387
000380 30 be f1 bd 7f f3 8b 3c fc 6b 25 be 0d c8 02 be
       -0.118038535 0.017083881 -0.16154474 -0.12771626
000390 8a 67 ef 3d 5c c7 75 bd 7f fc d2 bd 3e cf ac be
       0.116896704 -0.060004577 -0.10302066 -0.33751863
0003a0 18 08 fe bd 7c e0 8b 3e 84 2f b0 3e 2b 5b 4c 3d
       -0.124038875 0.27319705 0.34411252 0.049891632
0003b0 a1 2d 0e be 94 0e 4f be ba 43 ed be 23 d4 92 3d
       -0.13884594 -0.20220405 -0.46340734 0.07169368
0003c0 0c fe 00 bf 4f 4b 87 3e c8 42 36 3e 28 ba 9c bc
       -0.50387645 0.26424643 0.17798913 -0.019131735
0003d0 ef b8 f7 bd cf 58 6f be 5d 61 82 3d 40 d4 89 3d
       -0.1209582 -0.23373722 0.06366227 0.067299366
0003e0 33 3c ad 3a c1 5c 50 be 91 0f 80 3d 94 eb 82 bd
       0.0013216793 -0.20347883 0.06252969 -0.06392589
0003f0 14 01 fa 3d 00 a4 da 3d a0 41 2f 3e eb 8e 89 be
       0.12207237 0.10675812 0.17114878 -0.2686685

conv1.bias f4 [32]
000000 b9 ec 48 be bd b0 94 be 99 e8 d1 bd dc 76 9c be
       -0.19621553 -0.2904109 -0.102494426 -0.30559433
000010 a1 73 cc be 62 e6 a5 be 01 90 c2 be 45 8c 8f be
       -0.39931968 -0.3240233 -0.3800049 -0.28036705
000020 cd 20 14 bf 94 3e f1 be c7 27 e5 be e6 ac 6d be
       -0.5786255 -0.47118056 -0.4475691 -0.23210487
000030 5b f4 80 be 9f 46 a7 be 6b 62 a5 be aa 5c e8 be
       -0.25186428 -0.32671067 -0.3230165 -0.45383197
000040 a6 58 c1 bd 13 50 cb be eb 0a 9c be 08 1e ae be
       -0.094407365 -0.3970953 -0.3047708 -0.34007287
000050 82 bc 9e be 80 6c fa bd 94 ac a2 be ea 67 67 be
       -0.31003195 -0.12227726 -0.31772292 -0.22598234
000060 73 d0 62 be a3 18 37 be 7f d2 ce be 82 33 73 bd
       -0.2214983 -0.17880492 -0.4039497 -0.059375294
000070 43 d2 da be 73 d6 0b bf 02 c7 8e be 2f 22 99 be
       -0.42738542 -0.546241 -0.27886206 -0.29908893

conv2.weight f4 [32, 32, 3, 3]
000000 94 d8 c5 3d 85 62 18 be d6 4b 16 be 31 4d 04 bd
       0.096604496 -0.14881332 -0.14677367 -0.032300178
000010 10 6d 34 be 4a 4a 10 be 94 9e c1 3d 56 1b 69 bd
       -0.17619729 -0.14090839 0.094540745 -0.056910835
000020 5d 83 88 bd 54 2b 6d be 71 44 c2 3c 91 f8 23 be
       -0.066656806 -0.2316106 0.023714276 -0.1601279
000030 83 c5 6f be 08 e5 4a 3d f1 cc ba 3b 68 41 8c be
       -0.23415188 0.049534827 0.0057007005 -0.2739365
000040 4c db 62 bd b7 81 24 be 89 f9 14 bd ef 7f eb bd
       -0.05538492 -0.16065107 -0.036370788 -0.11499011
000050 b6 1d 6a bc ae 53 0e be 6a 9c e6 bc 1c af 7f bd
       -0.01428931 -0.13899109 -0.028150756 -0.062422857
000060 e1 11 33 bd c7 f4 a1 3d fd 38 2f 3d 23 d3 c8 3c
       -0.043718223 0.07908016 0.042778958 0.02451474
000070 c0 fd db bd 96 60 38 bd 81 96 51 bd a7 72 8a bd
       -0.10741758 -0.045013987 -0.051168922 -0.067601494
000080 8b 48 19 bd b4 25 70 bb 1d be 97 3d 43 c0 a8 3c
       -0.037422698 -0.0036643567 0.07409308 0.02059949
000090 d2 f7 cc bd 9d 46 4d be 25 76 73 bd da db f8 bd
       -0.100082055 -0.20046468 -0.059438843 -0.12151308
0000a0 29 19 31 be f3 2e 6c bc d4 89 d4 bd 51 7f 91 bd
       -0.17294754 -0.01441549 -0.10377851 -0.07104362
0000b0 eb cf 76 be ca 75 a6 bd 5f f9 33 bd ce 43 94 be
       -0.24102752 -0.08127935 -0.04393899 -0.2895798
0000c0 f2 ad da 3d 7f 47 e9 3c b7 2c 32 be 83 1c ca bd
       0.10677709 0.028476475 -0.1739987 -0.098687194
0000d0 c0 48 52 3d b8 81 5b bd a3 63 e3 3d 46 ae 12 3e
       0.05133891 -0.053590506 0.111029886 0.14324293
0000e0 2f b5 99 bd 9a 1c 43 be 4e eb 44 3e 80 e4 50 3d
       -0.07505261 -0.1905388 0.19230387 0.050999165
0000f0 8f 80 f0 bd d4 f5 5c 3e 06 24 f3 3d ea 5b d5 bd
       -0.117432706 0.21578151 0.11872105 -0.10417922
000100 09 b6 11 be 72 1c 22 be 24 f0 f3 bd be a1 be bd
       -0.14229597 -0.15831164 -0.119110376 -0.093081936
000110 d9 84 82 bd 30 a8 30 3d a0 d5 5d bd 73 5c ca 3c
       -0.06372995 0.043129146 -0.054158807 0.024702286
000120 e8 4f 14 3d a2 c5 26 be 8f 91 9d 3e cc b5 18 be
       0.036209017 -0.16286328 0.30775115 -0.149131
000130 18 a9 b2 bd 70 ba 80 3e c9 c6 dd ba 75 dc ec bc
       -0.08723658 0.2514224 -0.0016920205 -0.028913716
000140 bf 33 fc 3e f3 a2 f9 bd b4 8b 8c bd ff 50 cf bd
       0.4925823 -0.12189283 -0.06862584 -0.10122871
000150 30 55 5a be c5 64 ea bc eb 1c 23 be f6 13 eb bd
       -0.21321559 -0.028612504 -0.15929 -0.114784166
000160 fc 80 a2 bd f3 d1 33 bd c2 b8 a7 be 3e d3 ee bd
       -0.07934758 -0.043901395 -0.32758147 -0.11661385
000170 ea 54 0c be 70 62 c9 be 22 a6 77 be 47 2e b9 3c
       -0.13704267 -0.39332914 -0.24184468 0.022605075
000180 4e c3 9e bd be 22 29 bd b4 d6 3f bd d2 fd 56 3d
       -0.07752095 -0.0412929 -0.046835616 0.052488156
000190 61 09 0f 3c f7 f8 81 be fe 42 7e 3c c1 f6 57 bd
       0.008730263 -0.25385258 0.015518902 -0.052725557
0001a0 6d 69 1f 3d c7 55 b7 3d f3 e6 33 be e2 43 73 be
       0.0389189 0.089519076 -0.17568569 -0.23756364
0001b0 74 0f 80 be ff 06 ee ba 21 e2 08 3d ab 45 6d be
       -0.2501179 -0.0018160044 0.03341878 -0.23171107
0001c0 dc db 76 bc a4 95 36 bd 7b 44 b6 3c 9e 87 91 bc
       -0.015067067 -0.044576302 0.02224945 -0.017764863
0001d0 2a 2a 34 be 06 f3 98 3b 4d 50 df 3d d8 4e 9d be
       -0.1759421 0.0046676425 0.10903988 -0.30724216
0001e0 a3 e0 e5 bd 23 cf df bc a5 b0 d3 bd 0a 5e 94 3c
       -0.11224487 -0.02732045 -0.10336427 0.018111248
0001f0 2b 5c cb bd 94 ac 8f bd b4 df 6e 3c 97 eb bf 3d
       -0.09929689 -0.070153385 0.014579702 0.09371107
000200 43 a5 8a ba 9e e9 b3 3c 47 9d 2a be 3f f9 8e 3d
       -0.0010577816 0.021961983 -0.16661559 0.06981134
000210 dc fc 3b 3e 89 13 f6 bd 01 cb 6d be c4 bd 2d be
       0.18358177 -0.12015445 -0.23221971 -0.16966921
000220 30 bc 1e be c8 f1 05 be 43 7e 30 be 82 33 a6 bd
       -0.15501475 -0.13080513 -0.17235665 -0.08115293
000230 e1 33 1c be cf a4 04 bd 17 f4 12 3d 8f c6 92 be
       -0.15254165 -0.032383736 0.035877313 -0.28667113
000240 c2 ce a8 be 73 2e 50 be 24 dd 4a bc 2e 30 9e bd
       -0.32970244 -0.20330219 -0.012381826 -0.07724033
000250 61 98 cc bd 6b f6 0d 3e 2e 77 a5 bc 19 18 93 be
       -0.099900015 0.13863532 -0.02019843 -0.28729323
000260 1c c2 f8 bd fb 39 e6 bb 3a f8 f2 bd 0d e4 81 be
       -0.121463984 -0.007025955 -0.11863752 -0.253693
000270 c0 23 59 3d e3 4f c7 bd cd 33 6f be b4 b2 36 3d
       0.05301261 -0.09732034 -0.23359604 0.04460402
000280 1d ec 9f bd 24 10 90 be 5b 40 14 be 1d 78 4e be
       -0.07808707 -0.28137314 -0.14477675 -0.20163007
000290 91 39 2f be 39 44 3c be 80 99 0b be 9d 9d 28 be
       -0.17111804 -0.183854 -0.13632774 -0.16466375
0002a0 6e 98 59 bd 99 65 25 bd 50 03 5a bd dc 63 e4 3c
       -0.053123884 -0.040380094 -0.053225815 0.027879648
0002b0 01 93 f0 3d c1 a2 35 3e 6a d6 95 3c 43 b1 75 3d
       0.11746789 0.17737867 0.018290717 0.059983503
0002c0 b5 d9 37 bc c9 06 9f be 7a c2 1b bd 64 b0 d0 3b
       -0.011221339 -0.31059864 -0.038027264 0.0063686837
0002d0 49 73 1b be 5c 67 73 be e7 36 47 bd aa 0e 29 be
       -0.15180697 -0.23769897 -0.048636343 -0.165095
0002e0 85 09 a2 be f4 bd af 3d 38 52 0e bb 23 aa a4 be
       -0.31647888 0.085811526 -0.0021716487 -0.32161054
0002f0 44 80 13 be fc b3 97 bd 32 c8 4e be c5 dc 12 3e
       -0.14404398 -0.07407376 -0.20193556 0.1434203
000300 21 c4 e1 bb cf d3 ea 3b c0 ed 44 bc a6 16 ce bd
       -0.0068898355 0.007166363 -0.012019575 -0.100629136
000310 f8 b1 4a bd 40 fc 92 bb 84 54 f4 bd 51 3e 72 3e
       -0.04948613 -0.004485637 -0.119301826 0.23656584
000320 2c b9 c5 bb 4f b2 3b be 2d ea 3d 3c 26 ca 80 3e
       -0.006034037 -0.18329738 0.011591476 0.25154227
000330 14 56 0a be a7 20 1c be 37 f5 65 bd 51 21 9c bd
       -0.13509399 -0.15246831 -0.05614206 -0.07623542
000340 70 92 fa bd 33 10 ef bb 5a 0d d2 bb 15 da 0f be
       -0.12234962 -0.0072956323 -0.006410283 -0.14048035
000350 7a 91 13 be a9 53 31 3c db 8c 4a bd 57 47 08 bd
       -0.14410964 0.010823169 -0.049450736 -0.03327116
000360 c9 e4 b5 3d 01 1c 68 3d 48 28 ba 3d 07 4b 75 bd
       0.08881528 0.05666733 0.09089714 -0.059886005
000370 fa 2f 4e 3d ee 11 c0 3c 39 7e c4 bd 90 48 fc bd
       0.050338723 0.02344605 -0.095943876 -0.12318528
000380 4b e1 1e be 7e 2a e7 3b 9c 8b 05 be ee 85 40 bd
       -0.1551563 0.007054626 -0.13041538 -0.047002725
000390 42 b5 b5 bd 81 6a 64 bd 54 79 7f be 6e 57 ea bd
       -0.08872463 -0.055765633 -0.24948627 -0.11442457
0003a0 07 5e 92 bd 04 0f 84 be 24 03 39 be ef 46 75 be
       -0.071468405 -0.25792706 -0.18067604 -0.2395284
0003b0 0f d2 9d be 0a 41 ae be 41 44 a7 be 7f 20 00 be
       -0.30824324 -0.34033996 -0.3266926 -0.12512396
0003c0 8b d0 68 be 6a f4 23 be 5f b9 9a be b7 ef 12 3c
       -0.22735803 -0.16011205 -0.30219552 0.008968285
0003d0 a1 77 bb bd 8e 46 89 be 13 e5 d7 bd 69 cd 4e 3d
       -0.09153677 -0.2681164 -0.10541739 0.050488863
0003e0 b2 93 5c bd ab a1 72 be b4 eb 88 3d dd 24 08 be
       -0.05385179 -0.23694484 0.06685582 -0.13295312
0003f0 9c 16 aa be 3e 95 e1 3d 36 f4 46 bd 85 cd 0e be
       -0.33220375 0.11014794 -0.04857274 -0.13945587

conv2.bias f4 [32]
000000 ad 16 8c be 08 8e 95 3d 50 93 7b bc 97 63 c5 bd
       -0.2736105 0.07302481 -0.015354946 -0.09638136
000010 68 dc ba 3c 04 c7 91 bd 5c e5 ca bd a5 e0 91 bd
       0.022810176 -0.07118037 -0.09907028 -0.07122926
000020 1a ce 28 3e 0c c1 14 bd 6c 07 17 3e 8f 0a f5 bd
       0.16484872 -0.036316916 0.14748925 -0.119649045
000030 28 28 da 3c c5 26 64 3c c9 8b 89 3d 12 1b c7 bd
       0.026630476 0.013925259 0.06716115 -0.0972196
000040 bc 88 88 3b f1 3f 6c 3d e5 a9 5b bd f6 a5 2f bd
       0.0041666906 0.057678167 -0.05362882 -0.042882882
000050 9b 2a fd bd 6d 74 51 3d a8 01 f8 bd a2 0b 21 bd
       -0.12361642 0.051136423 -0.12109691 -0.039317735
000060 17 2d 61 be 0e e0 82 bd ef 88 d5 3d ac 96 e8 3d
       -0.21989857 -0.06390391 0.10426509 0.113568634
000070 f0 72 08 bd 0a 00 6f bc 51 a9 93 bd 42 c2 72 bd
       -0.033312738 -0.014587412 -0.07210029 -0.05926729

conv3.weight f4 [64, 32, 3, 3]
000000 a3 6f 61 bc ec c5 74 3e 9f 1a 9a 3d 7b 9f c4 3c
       -0.013759526 0.23903626 0.07524609 0.024001827
000010 4f e4 09 3e 55 c1 ab 3d 03 51 8b 3d c5 c5 9d bc
       0.13465999 0.083864845 0.06802561 -0.019259343
000020 cc cf a9 be 28 01 7e 3d 61 a3 2f 3e b8 1d c7 bd
       -0.3316635 0.06201282 0.17152168 -0.09722465
000030 39 4b 37 be f7 20 38 be 4b 5d 7b 3e 31 81 86 be
       -0.17899789 -0.17981325 0.24547307 -0.2627044
000040 52 b8 17 bd fe 69 69 3d d2 4c 0c 3e 02 6b be 3b
       -0.037041016 0.056985848 0.1370118 0.005811096
000050 83 f3 de be fb 23 44 3d ac 73 2d 3e 2f 3b 86 be
       -0.4354516 0.047885876 0.16938657 -0.26217028
000060 fc 90 41 be 09 b0 84 bd ea 39 8b 3e b9 ee 8e bd
       -0.18902963 -0.064788885 0.27192622 -0.069791265
000070 6f cb 1e be 1f f9 37 3c 06 b5 28 3d 3a f7 ce bd
       -0.15507291 0.011228829 0.041188262 -0.101057485
000080 e3 75 61 bd c2 40 13 3e e6 5c 90 bd ce 99 0e be
       -0.055044066 0.14380172 -0.07048969 -0.1392586
000090 45 19 18 3e 7f df 2a 3e 0f d2 46 be de 15 f8 bb
       0.1485339 0.1668682 -0.19416068 -0.007570966
0000a0 dc b0 34 bd 56 d6 bd 3c 69 37 69 be 2c 8b d8 bd
       -0.04411398 0.023173492 -0.22775044 -0.1057342
0000b0 69 1d 69 be 8b 8d f8 bd cc 09 53 3e 59 45 05 3e
       -0.22765125 -0.12136372 0.20609206 0.13014735
0000c0 a7 7c 4a bd 69 3c f9 3d 8b fe 64 3d 89 19 68 be
       -0.049435284 0.121697254 0.055906814 -0.22665991
0000d0 81 67 2e be fa bc b2 be 2e cd a0 be 9b 25 1d 3b
       -0.17031671 -0.34909803 -0.3140654 0.0023978713
0000e0 ea f2 3e 3e 50 01 8d ba 53 6d 37 be 49 b3 c5 bc
       0.18647352 -0.0010757837 -0.17912798 -0.024133341
0000f0 eb 22 c0 bd 1a 1a 1a be 35 53 c6 be 10 97 6f 3d
       -0.0938166 -0.1504902 -0.38735357 0.058493674
000100 61 34 7b bd 97 b2 06 3c d6 54 a1 bc 86 9b 17 bd
       -0.06132925 0.00822129 -0.019693773 -0.037013553
000110 95 c1 a7 3d e9 ab a3 be ba d5 a0 bd 0d cc 9b be
       0.0819122 -0.31967095 -0.07853265 -0.30429116
000120 07 4e 25 bd 8e 08 b9 bd 4f f4 9c be f6 0b 80 bd
       -0.040357616 -0.09034835 -0.30655143 -0.06252281
000130 3d 8b 52 bc 8c d2 24 be 39 74 fb bd 26 b6 ce 3d
       -0.01285058 -0.16095942 -0.12278027 0.10093336
000140 eb 26 b4 3e 7a d0 e2 bd 5b 3a d1 be 88 77 86 be
       0.35185942 -0.1107492 -0.40864834 -0.2626307
000150 6d bc d0 be fe d8 c9 bd 3d 7f 25 bd d6 27 b1 3d
       -0.40768757 -0.09855841 -0.040404547 0.08650176
000160 b1 99 55 3e 9d 74 00 3e 02 e2 44 3e e9 33 40 be
       0.2085941 0.12544484 0.1922684 -0.18769802
000170 cb e8 2e 3d 96 41 bf 3d b4 cb 24 be 25 a2 04 be
       0.042702477 0.093386814 -0.16093332 -0.12952478
000180 5b 3d 5f be 4c a8 97 be 62 97 7c bd 0e 89 8f 3a
       -0.21800749 -0.29620588 -0.061667807 0.001095088
000190 d5 f4 25 3d ac 85 72 3d 9e 1b fa 3c 48 35 2d 3d
       0.040516693 0.05920951 0.030530747 0.04228714
0001a0 05 be d4 3d e2 7f 25 be a3 6d 09 be e3 b4 46 3b
       0.10387806 -0.16162065 -0.1342073 0.003032022
0001b0 e5 84 97 bc 3b 59 d7 3d 90 56 74 3d de fd 1a bd
       -0.018495986 0.10515066 0.059652865 -0.037839763
0001c0 b0 65 f1 bb 14 5b d0 bd bb b7 9f 3e d5 93 09 3e
       -0.0073668584 -0.10173622 0.31194863 0.134353
0001d0 d4 21 8b 3d 93 d5 e9 3d 99 74 6c 3d 63 f2 86 be
       0.067935616 0.11417689 0.057728384 -0.263568
0001e0 39 1b 0c 3d 26 ce 74 3e 66 af 18 3e c2 15 23 be
       0.03420565 0.23906764 0.14910659 -0.15926269
0001f0 2a f3 21 3e 5d bd 83 be 8b 51 a2 3d 18 5f 84 be
       0.15815416 -0.2573041 0.07925709 -0.258538
000200 71 71 1c be 65 ce 2c be f9 7c ab be b0 95 7c bd
       -0.1527765 -0.16875608 -0.33493784 -0.06166619
000210 c7 ba 6d be a4 a1 17 3e 48 2e b2 3d 99 89 91 3c
       -0.23215781 0.14807755 0.08700234 0.017765807
000220 b9 57 d0 bc ff 75 83 3b 3d 98 ad 3b e2 b4 82 3c
       -0.025432454 0.004011869 0.0052976892 0.015955392
000230 57 a7 d6 3c f8 b6 04 3c e4 d2 71 bd df 23 73 bd
       0.02620284 0.008100264 -0.05903901 -0.05936038
000240 54 fc 94 be 9c 35 f7 be a5 fd 48 be 45 72 76 3c
       -0.2909876 -0.48283088 -0.19628008 0.015041892
000250 c9 f9 31 3e b3 f9 39 bd 12 70 81 3c 19 cb c0 3d
       0.17380442 -0.045404147 0.01580051 0.09413738
000260 ce b0 0d 3c df a8 0c 3e 40 1a 2e bc 6d c9 b1 be
       0.008648111 0.13736294 -0.010626376 -0.34723988
000270 9f 0c c4 3b 80 a7 2c be 32 68 03 3e af 56 60 3c
       0.00598295 -0.16860771 0.12832716 0.013692542
000280 79 26 31 be c3 92 e3 bc 8d 67 40 bd 2e 2d ba bd
       -0.17299832 -0.027779942 -0.046973754 -0.090906486
000290 12 f4 25 be 3e d5 5c bc 0f d8 1a be f3 49 5d be
       -0.16206387 -0.013478575 -0.15121482 -0.2161024
0002a0 65 59 12 be 05 7c 03 be e3 de b8 be 7f 0a b3 bc
       -0.14291914 -0.12840278 -0.3610755 -0.02185559
0002b0 62 55 03 bd 45 ae 5d 3d b5 32 4c 3d b2 1e d4 3d
       -0.03206385 0.054121275 0.049853045 0.10357417
0002c0 da 96 bb 3d 23 f8 1c 3e 54 67 39 3d 47 1a 98 3c
       0.09159632 0.15329032 0.045264557 0.018567218
0002d0 20 f5 c2 be ca fa b7 be c5 b9 6b 3e bd 68 29 be
       -0.3807764 -0.35933524 0.23020084 -0.1654386
0002e0 2f 46 e9 3d a6 39 68 3e 12 63 0d 3e 16 6d 7f 3e
       0.113903396 0.22678241 0.13807324 0.24943957
0002f0 e7 95 c3 3c 1b 8d 25 3e b7 b3 77 3d 26 80 17 be
       0.02387519 0.16167109 0.060474124 -0.14794978
000300 3e c7 3d bc 94 be e4 3d 8a b2 2f bd 2d 79 0a 3e
       -0.011583148 0.111691624 -0.042894877 0.13522787
000310 41 9c 80 bc 37 d9 e2 3d c2 da d2 3d de a1 1b be
       -0.015699508 0.11076587 0.10295631 -0.15198466
000320 3f 50 a1 be 2c 96 27 3e b7 86 1c 3e 70 a2 b8 be
       -0.31506535 0.1636588 0.15285765 -0.3606143
000330 2a a6 dd 3d 87 c3 10 3d 47 33 0a be 15 4e ca bd
       0.10822709 0.03534272 -0.13496123 -0.09878174
000340 b4 b3 2f be 54 30 91 be ac 33 8c bd ea d2 9e bd
       -0.17158395 -0.28357184 -0.06845793 -0.077550724
000350 7c c0 5e be ae db a9 3e ab ef f1 3d e9 3b dc 3d
       -0.21753114 0.33175415 0.11813291 0.107536145
000360 1f 93 2e be 84 ef 90 3d b8 88 8f 3d 5a 3c 01 bb
       -0.1704831 0.07076934 0.07008499 -0.001971981
000370 45 2f 22 3d 71 20 c7 3d ed 9c 16 be 19 cb 85 be
       0.03959586 0.097229846 -0.147083 -0.26131514
000380 51 a1 af 3c 4f 48 1a 3e 26 ca 62 be ef 6e 91 be
       0.021439226 0.15066646 -0.22147426 -0.28404948
000390 db 3a 40 3d 87 53 dc bd 9d 31 52 bd c7 f9 03 be
       0.04693113 -0.10758119 -0.051316846 -0.12888251
0003a0 0b 84 06 3e 53 01 7f 3e 3c c6 7a be e2 4d e0 be
       0.13136308 0.24902849 -0.24489683 -0.4380942
0003b0 4d 92 c8 be 7c 20 d4 be be 9d f2 bd 55 f3 8d 3d
       -0.3917412 -0.41431034 -0.11846493 0.069311775
0003c0 45 30 30 be 2e c1 24 be c0 e8 24 3d 61 19 36 3e
       -0.17205913 -0.16089317 0.04026103 0.17783119
0003d0 8f a9 48 be 37 6a 01 be 0a a8 10 be dc 4b 93 be
       -0.19595931 -0.12638174 -0.14126602 -0.28768814
0003e0 c5 71 82 bc 3d f0 1d be c0 ef 9c be 67 0c b6 bd
       -0.01592339 -0.15423675 -0.30651665 -0.08889084
0003f0 f3 7a 62 3c aa 9a 52 bc 9b 89 cb 3d e8 d9 15 3d
       0.013823259 -0.012854258 0.099383555 0.036584765

conv3.bias f4 [64]
000000 80 79 96 bd 98 09 94 bd c0 a3 84 3e 12 d3 57 3e
       -0.07347393 -0.07228392 0.2590618 0.2107661
000010 97 51 3f bd a3 e9 3e 3d 2a 7f bc bc 09 d1 ae bd
       -0.04670867 0.046609532 -0.023009855 -0.08535964
000020 21 e1 d1 bb 7a ac 23 3e 5b 3d 58 bd 51 42 9b bd
       -0.0064050113 0.15983763 -0.052792888 -0.07581008
000030 a1 2a 1b be 78 0c a8 3c 77 5f c2 bd 6f 52 85 3d
       -0.1515298 0.020513758 -0.09490865 0.065098636
000040 ce d8 6e be 91 ef a0 bc ba 32 b2 bd c2 7b 25 be
       -0.23324892 -0.019645484 -0.087010816 -0.16160491
000050 51 ab 35 be a4 2a 84 be 8f 89 3b be 81 aa 72 bd
       -0.17741133 -0.25813782 -0.18314193 -0.059244636
000060 f8 7f 6e bd f9 6f 7e 3e 65 f1 00 be 5e 05 41 be
       -0.05822751 0.24847402 -0.12592085 -0.18849704
000070 06 0f cf bd c0 c9 18 bd 68 b3 25 3e 57 57 16 bd
       -0.10110287 -0.03730178 0.1618172 -0.036704388
000080 26 7c 55 3c 0f 88 19 3d 4c 99 7c 3d 53 48 de bc
       0.013030088 0.03748327 0.061669633 -0.027134096
000090 af 5b 13 be f2 09 bb ba b1 31 23 be 2f e2 46 bc
       -0.14390443 -0.0014269932 -0.15936925 -0.012138887
0000a0 8f 4b 70 bd 40 44 59 bd aa a6 88 bd ab bf 8e bc
       -0.05866581 -0.053043604 -0.06672414 -0.017425379
0000b0 27 5c 66 3c 01 37 84 bd 83 78 02 bd 25 cd 39 3e
       0.014060057 -0.06455804 -0.03185321 0.18144663
0000c0 1c 11 bc bc 52 04 9b bd 60 ed 6d 3e 35 19 ba bd
       -0.022957377 -0.075691834 0.23235083 -0.09086839
0000d0 78 27 f3 bc e0 68 66 3d 14 04 1c 3e 2a ac 51 bc
       -0.029681906 0.05625236 0.1523593 -0.012797395
0000e0 8a 3b ca bd cc d5 00 be f5 c3 13 3e 76 a4 3a 3c
       -0.098746374 -0.12581557 0.1443022 0.01139175
0000f0 77 fe ff bc 34 3c cb 3d 07 ba ce bd e2 f3 bc bd
       -0.031249268 0.09923592 -0.10094076 -0.092262045

conv4.weight f4 [64, 64, 3, 3]
000000 60 5a bd bd 3a 32 3e be c2 64 67 be c7 18 73 be
       -0.09245753 -0.18573847 -0.2259703 -0.2373992
000010 a1 c0 81 be 0b 3c ae be 98 15 b1 3d 19 e4 22 be
       -0.25342277 -0.34030184 0.08646697 -0.15907325
000020 37 f3 91 3d 47 3e 9e be 44 6f 9d bd 79 09 61 3e
       0.07126468 -0.3090689 -0.07687238 0.2197627
000030 d5 1a 6e bd ee d0 79 bd 98 0c 87 3e ab bb 87 be
       -0.058131058 -0.060990267 0.26376796 -0.26510367
000040 8b 02 06 3e d2 88 dc 3c 9f 04 05 3e fd d3 4c 3e
       0.13086908 0.02692071 0.12990044 0.20002742
000050 3d dc 0c 3e 1f 46 74 bc b5 8e 38 3d ea e3 38 bc
       0.13755889 -0.014909296 0.04505797 -0.011284808
000060 e7 0a 75 3c 52 0f c7 3d 49 b6 2f 3c 28 f6 45 be
       0.014956213 0.09719719 0.0107246125 -0.19332182
000070 99 bd 1b 3e c5 33 d2 3d 5c 12 a6 3d bc 1b 87 3d
       0.15209045 0.102637805 0.081089705 0.06597087
000080 34 14 9a bd de 3d c1 bd d0 57 bd be 63 11 a1 be
       -0.07523385 -0.09435628 -0.36981058 -0.31458578
000090 c9 e5 92 be d3 b6 11 be cc 1b 9d 3d 4a f7 c2 3d
       -0.28690937 -0.14229898 0.076713175 0.09519823
0000a0 e7 17 a2 be 81 18 26 3d a0 00 09 3d 51 ea 42 bd
       -0.3165886 0.040550712 0.03344786 -0.047586743
0000b0 76 a6 26 3e 15 b6 3b 3e a4 c7 64 3e 2f 07 1b 3e
       0.16274437 0.18331178 0.22341782 0.15139459
0000c0 c8 16 71 3e 81 2a 76 3d 58 b1 d4 be ec 89 ce bc
       0.23543847 0.06009913 -0.41541553 -0.02521225
0000d0 43 ad 04 bf b7 fe 12 be a4 62 98 be ec bf b2 be
       -0.51826876 -0.14354979 -0.29762757 -0.3491205
0000e0 7e c6 01 3c 71 a7 a1 bc de 1b 92 be 4b 52 26 3e
       0.007920859 -0.019733163 -0.28536886 0.1624233
0000f0 70 ae 82 bd 26 f4 30 3d 51 c2 97 be b0 21 ad bb
       -0.063809276 0.043201588 -0.2964044 -0.005283557
000100 c2 d1 39 be 9b 02 94 be 9b 22 bb bc 9e 3f 53 be
       -0.18146423 -0.28908238 -0.02284365 -0.20629737
000110 c8 b3 cf be f9 43 2e be 1e 12 d7 bd 50 18 85 be
       -0.4056685 -0.17018117 -0.105015025 -0.2599511
000120 e0 ea 13 3e e6 25 72 3c a2 5b 3c be 16 52 10 3e
       0.14445066 0.0147795435 -0.1839433 0.14093813
000130 0e 30 12 be 88 0c 24 3d 25 0c 97 3d ad d5 c2 be
       -0.14276144 0.040051013 0.07375363 -0.38053647
000140 5a be 84 bd 91 a9 cb 3d d7 3c d7 3d ee 85 9a 3c
       -0.06481619 0.099444516 0.10509651 0.01886269
000150 b8 c7 07 3d e4 f4 26 be ed 66 d1 be 93 6e 1a be
       0.03314945 -0.16304356 -0.4089884 -0.15081243
000160 4a 87 7a 3d cf d2 f1 bc 5f 50 57 be ce c6 30 be
       0.061164178 -0.029519467 -0.21026753 -0.17263338
000170 ea a0 d4 bd 3e 3c 68 be 39 e5 dc 3d 67 59 dd be
       -0.103822544 -0.2267923 0.10785908 -0.4323227
000180 29 84 cc 3d e3 24 e9 bd ec e7 5f be 31 0d e1 bc
       0.09986145 -0.11383989 -0.21865815 -0.02747211
000190 13 11 da bd a3 90 a0 bc 7b 57 72 be b6 0c 0d be
       -0.10647788 -0.019600218 -0.23666184 -0.1377438
0001a0 4e 7d 6f be 85 db 44 3d bf 34 91 bc 4b 88 b2 3d
       -0.23387644 0.048060913 -0.017725347 0.08717402
0001b0 b0 64 19 3d 30 48 08 3d 72 b8 29 be 1a c8 a3 bc
       0.03744954 0.03327197 -0.16574267 -0.019992877
0001c0 be e3 fb bd 13 89 7a bd ea d8 29 3d 0e b3 06 3e
       -0.12299298 -0.06116588 0.04146663 0.13154241
0001d0 96 09 26 bd e7 08 5a be 95 6c 6d be 27 2a f2 bd
       -0.040536486 -0.21292458 -0.23185952 -0.11824446
0001e0 a3 e6 46 3b cd d7 0c be 15 57 2d 3e e3 eb 7f be
       0.0030349873 -0.13754196 0.1692775 -0.24992327
0001f0 11 91 ec 3d 14 a7 93 3d 0e bb 21 3e c9 87 d1 bd
       0.11551107 0.07209602 0.15794012 -0.10230977
000200 0b 08 c3 be 25 7e 20 3e bb 2c db 3d 3e 7e 9d be
       -0.38092074 0.1567312 0.10701891 -0.30760378
000210 33 44 29 3e 43 51 80 bd 03 17 26 be 3d df 0a 3e
       0.16529922 -0.062654994 -0.16219716 0.13561721
000220 73 07 a3 3e f5 59 5f 3d 06 cd 61 3b 05 65 8b bc
       0.3184162 0.05452915 0.003445448 -0.017015943
000230 66 26 1b be 45 b2 48 be c1 27 00 bf 99 e5 9c be
       -0.15151367 -0.19599254 -0.5006066 -0.3064392
000240 fe 14 b9 3d 14 8d e3 bd 71 ec 36 be 51 e4 22 bd
       0.09037207 -0.11110893 -0.17863633 -0.03976852
000250 77 33 c1 3d 01 dd 6d bd 7d a8 0e be da 97 b9 bd
       0.09433644 -0.058072094 -0.1393146 -0.090621665
000260 ca f6 dd be a1 6a ad bc e3 a4 0a be 92 da 67 be
       -0.43352348 -0.021169009 -0.13539462 -0.22641972
000270 8e e2 d5 bd fe 72 d5 be 44 2d 75 be 8f 79 ac bc
       -0.104436025 -0.41689295 -0.23943049 -0.021054057
000280 f0 bd 39 be 93 04 58 be ef db 18 bb 46 46 9a bd
       -0.18138862 -0.21095495 -0.002332445 -0.07532935
000290 97 21 98 3d cd 34 8a bd 9b 52 81 bc b6 6e 18 bc
       0.07428282 -0.06748352 -0.01578646 -0.009303739
0002a0 17 80 45 3c 57 a7 d1 bd 63 96 d8 3c c8 03 a5 3d
       0.012054465 -0.10236996 0.026438897 0.08057362
0002b0 b9 13 8b bd 98 54 2c be f0 ab 2a bd fb 67 fe 3c
       -0.06790871 -0.16829145 -0.04166788 0.031055441
0002c0 4e d9 86 bd a7 d2 17 be 2a d9 a5 bd 7f 2f 7f bc
       -0.06584416 -0.14826451 -0.080980614 -0.015575289
0002d0 3f f6 98 3e 97 a5 67 be 6c 8b 90 bd 4b 6b 91 bc
       0.2987537 -0.22621761 -0.070578426 -0.017751357
0002e0 66 1b 1d be 39 f5 42 3e df 29 35 bd 81 0b c1 bd
       -0.15342483 0.19038858 -0.044229385 -0.09426022
0002f0 3b 40 24 bd af 8e 41 3d fa 12 12 3d 97 1e e2 bd
       -0.040100317 0.047255214 0.03566263 -0.11040991
000300 cc ef 5b 3e d7 04 01 be b4 0d 38 be 7d 6e 22 3e
       0.21478194 -0.12599503 -0.17973977 0.1586246
000310 b9 13 eb 3d 54 da ee bd c6 30 86 bd 40 75 bd 3d
       0.11478371 -0.116627365 -0.065522715 0.09250879
000320 cf 93 a0 be 47 95 09 3d b9 13 83 3c ca 66 8d bd
       -0.3136277 0.033589628 0.016000615 -0.06904371
000330 05 d9 3a be 47 21 21 be c9 c8 66 3e 8c 1b bd 3d
       -0.18246849 -0.1573535 0.22537531 0.0923377
000340 dc 19 c4 3c 78 df b8 3c 62 66 21 be d1 46 d2 bd
       0.023938112 0.022567496 -0.15761712 -0.102674134
000350 e6 35 07 bf a3 e7 a0 be 6b 00 26 be c8 85 b6 be
       -0.5281662 -0.31426725 -0.16211097 -0.35648942
000360 06 d6 80 bc 84 37 0e be 9f dc 82 be ed 7b 8e bd
       -0.015727054 -0.13888365 -0.25558946 -0.06957231
000370 b9 70 6c be 5a e3 9e be e6 70 33 be 11 ac fc 3c
       -0.23089875 -0.3103283 -0.17523536 0.030843766
000380 fc b4 83 be 00 5b d4 3b 39 22 db bc b9 9b 9b bd
       -0.25724018 0.0064805746 -0.026749717 -0.07598061
000390 11 9b 5e bd fe 1c 84 be 5e 2a 95 be 2f 48 dd bd
       -0.0543471 -0.2580337 -0.29133886 -0.108047836
0003a0 d2 d3 2e be 6f f7 b6 be e4 63 17 3e d9 50 27 be
       -0.1707299 -0.35735652 0.14784199 -0.16339435
0003b0 34 70 8d 3e 64 46 12 bd 82 b9 22 be bd 83 1e be
       0.27624667 -0.03571166 -0.15891078 -0.15479942
0003c0 22 9f 00 3e 69 70 10 be 5b 2a f2 bc ea 41 fe 3b
       0.12560704 -0.14105381 -0.029561212 0.0077593224
0003d0 ca 02 b7 bd 20 27 e0 bd 9f 26 ef bd 70 e0 31 be
       -0.08936079 -0.109449625 -0.11677288 -0.17370772
0003e0 50 b2 85 bd c4 25 be 3d 58 90 f8 3d aa a8 c8 3d
       -0.06528151 0.09284547 0.121369064 0.09797795
0003f0 93 ed 1a be 0f 4c 1c be 7b 91 39 bd e5 3d 23 bd
       -0.1512969 -0.15263389 -0.045304757 -0.03985395

conv4.bias f4 [64]
000000 35 d1 1c 3e a8 30 73 3d 36 a5 81 3c c4 79 85 bd
       0.15314181 0.059372574 0.015825849 -0.065173656
000010 16 1d b5 bd ea 65 ff 3d 17 5d ec bd 71 7c da 3d
       -0.08843438 0.124706104 -0.11541193 0.106682666
000020 f0 ee 57 bc 72 a7 1e 3e ae 81 47 bc 67 e1 bc bd
       -0.013179526 0.15493563 -0.012176914 -0.092226796
000030 15 f8 5a 3d b5 f9 f9 3d 4f 0e 2f 3e c2 c9 b4 3d
       0.053459246 0.12205831 0.17095302 0.08827545
000040 e1 18 87 bc 7f a1 d9 3d 9c 66 ec 3d 92 79 7a bd
       -0.016491355 0.10626506 0.11543009 -0.061151095
000050 0e 7c 50 be 30 2e d0 3d 9d 64 98 3d 9a 83 3d 3e
       -0.20359823 0.101650596 0.074410655 0.18507233
000060 2b 48 d1 bb 53 ab b7 bd 55 48 41 bc fd 57 0e bc
       -0.006386777 -0.089682244 -0.01179703 -0.00868797
000070 ae e5 66 3d 9b ec 53 bd 4a a5 20 3d 26 43 be bd
       0.056371383 -0.051739316 0.039220132 -0.09290151
000080 ff f9 f2 bd ac e6 76 3d b2 b3 f2 3b 10 0e fb bc
       -0.11864089 0.06027858 0.0074066753 -0.030646354
000090 21 f7 db bb db 25 1a bd 9d 36 f8 3d ea a9 db bd
       -0.0067128097 -0.037633758 0.12119792 -0.10725768
0000a0 39 de 8a 3d b1 b2 13 bd 56 dc 58 bd 1c 17 8d 3d
       0.06780667 -0.036059085 -0.052944504 0.068891734
0000b0 73 bc 22 3d 93 ec 5d 3e d4 68 ea bc 8a 1c 2a bc
       0.0397305 0.21672277 -0.02861444 -0.010382781
0000c0 e3 dc 22 3e 9c f1 09 3d 5b 48 d7 3d 08 30 d3 bd
       0.15904574 0.033677682 0.105118476 -0.103118956
0000d0 52 51 32 3d db 53 17 3e 3c 4e d9 bd b4 4a ae bd
       0.043534584 0.14778082 -0.10610625 -0.08510342
0000e0 b8 77 00 3c ca ce ea 3d 41 9d 2f 3e 36 fa 43 bc
       0.007841043 0.11465223 0.17149831 -0.01196151
0000f0 2c 7f a6 bd a1 7f e6 3d 65 05 1e 3e 72 2d e2 3c
       -0.08129725 0.11254812 0.15431745 0.02760956

fc1.weight f4 [128, 1024]
000000 77 0e 8e 3c 83 d3 4d 3d 1c 0e 86 3e 2f f0 08 bd
       0.017340882 0.05025054 0.2618264 -0.033432182
000010 ee 20 c6 3d 81 cf e1 bc b9 cf 72 bd 81 58 57 bd
       0.096742496 -0.027564766 -0.05928013 -0.05257464
000020 2d e3 82 3d bc 44 53 bd 4c c2 3a bc c4 d4 3c bc
       0.063909866 -0.051579222 -0.011398863 -0.011525337
000030 78 72 37 be ca b6 9f bd 50 3b 01 be b3 6e bd bd
       -0.1791476 -0.07798536 -0.12620282 -0.0924963
000040 48 f3 06 be b2 37 0e be f2 78 1a 3e ae 0f 87 3d
       -0.13178742 -0.13888434 0.150852 0.065947875
000050 52 9f 4e be 6f c7 ab 3c 62 14 af be 5c ce 7e be
       -0.20177963 0.02096912 -0.34195238 -0.24883407
000060 a0 8b 86 bd 8b 3f b1 bd 97 af 3e be 04 e5 7b 3d
       -0.065696 -0.08654698 -0.1862167 0.061497703
000070 66 95 99 3d 78 ad 0a 3d e0 ba a8 bd 57 76 bc 3c
       0.074991986 0.03385684 -0.082387686 0.023005648
000080 58 2c 61 3e fe d6 36 bc 86 c0 f0 3d 7c 1e a5 3d
       0.21989572 -0.011159657 0.11755471 0.08062455
000090 1b e4 97 3e 71 d2 fa bd 3e af b2 3d 7e ac 8d 3a
       0.29666218 -0.1224717 0.08724831 0.0010808853
0000a0 ee 09 8c 3d 69 dc 25 bd 73 a5 10 3d 3d 5e d8 3c
       0.068378314 -0.040493403 0.035314035 0.026412124
0000b0 b5 14 9d 3d 91 de a2 bd 08 9a 2f 3d a9 04 05 bd
       0.07669965 -0.079526074 0.042871505 -0.032475147
0000c0 84 b0 55 3d 28 50 c2 3c c0 83 03 3d a0 d0 b1 3d
       0.05217029 0.023719862 0.03210807 0.0868237
0000d0 52 af 84 39 49 00 94 bc 64 ef 8d bc 0a ef 7b 3c
       0.00025307626 -0.018066542 -0.017326064 0.015376816
0000e0 fa 6f f9 bc b6 66 f0 3c e4 41 a4 ba 75 a7 9c 3d
       -0.030448902 0.029345851 -0.0012531844 0.076491274
0000f0 32 81 d8 3c de 06 8b 3d b9 b4 88 3d 6e 4e 68 bb
       0.026428793 0.06788419 0.06675095 -0.0035447138
000100 25 f5 39 3b 0d 2b 9b 3d 22 ae 0b 3e a4 04 57 3d
       0.0028374877 0.07576571 0.13640645 0.05249466
000110 26 ec 00 3d ac 06 a3 3d 40 d6 87 3d 0b c0 81 3a
       0.03147521 0.07960257 0.06632662 0.0009899152
000120 b9 d4 9a bc e2 7c 56 3d 68 b6 2a 3d 76 5f f9 bc
       -0.018900262 0.05236519 0.041677862 -0.030441027
000130 5e 73 9c 3d 5c 14 48 3d 21 64 b3 3d a9 2a 15 bd
       0.07639192 0.04884754 0.087593324 -0.036417637
000140 aa b2 65 3d eb 1a 5f 3e 6c b8 26 3e 71 17 82 3e
       0.05607859 0.21787612 0.16281289 0.2540851
000150 46 90 28 be a8 2e b5 3d e8 6b c2 3d 6a a7 03 3e
       -0.16461286 0.088467896 0.09493238 0.12856832
000160 87 35 34 3c 73 b9 34 3e 93 99 bb bd 9a 12 25 bd
       0.01099909 0.17648868 -0.09160151 -0.040300943
000170 fe 32 49 3d 8d d7 cd bd 00 71 35 3e 48 63 9c 3d
       0.049120896 -0.10050879 0.17718887 0.07636124
000180 db a3 a9 3d b1 41 84 3d 44 62 db 3d 5c 4c fa 3d
       0.08283206 0.06457842 0.10712102 0.12221596
000190 23 8d 72 3d 4e 63 46 3d 95 93 c4 3d f5 f0 ad 3c
       0.05921663 0.048434548 0.095984615 0.021233061
0001a0 72 60 27 3d 10 9e 35 3d b8 1d bf 3d c5 45 a9 3d
       0.04086346 0.044340193 0.0933184 0.082652606
0001b0 67 d7 8b 3d 6d c1 8a 3d 1c 99 f2 3d 0f 93 fc 3d
       0.06828194 0.06775174 0.118456095 0.12332737
0001c0 86 ac 90 bd af da 10 be 0a ba c7 bd d9 45 b2 bd
       -0.07064156 -0.14145921 -0.09752281 -0.08704729
0001d0 f8 5f 62 bb 47 98 12 bf aa a7 9f be c1 16 59 be
       -0.0034542065 -0.57263607 -0.31182605 -0.21200086
0001e0 1c 97 bc be b3 fe c8 be cd 59 18 be 1b 77 dc bd
       -0.36834037 -0.3925682 -0.14878006 -0.10764905
0001f0 d7 9b 91 be 53 88 34 be c2 3a bb bd f6 51 97 bc
       -0.2843921 -0.17630129 -0.091420665 -0.0184717
000200 f3 e1 51 be 0e 39 43 be 08 c1 9c 3e 47 ba 5a 3d
       -0.20496349 -0.19064733 0.3061602 0.053400304
000210 7f b6 a7 be d0 20 11 3b 5b cc cb bd 98 c9 8c bd
       -0.3275642 0.0022144802 -0.09951087 -0.068743885
000220 99 13 d2 be df d7 2e be be 8b f5 bd e9 e0 f1 bd
       -0.41030577 -0.17074536 -0.11989544 -0.11810476
000230 04 a1 8f be 04 76 91 3e e3 d3 9c bd 28 0a 97 be
       -0.28052533 0.2841035 -0.07657602 -0.29499936
000240 19 f5 94 3e 40 03 c5 bb d2 93 88 3c 3a 65 6e 3e
       0.29093245 -0.0060123503 0.016672049 0.23280802
000250 05 cc 9e bd c8 2c 0f bc af 86 1b 3b 6f 3e 1c 3e
       -0.077537574 -0.008738704 0.00237314 0.15258192
000260 0e 0b f0 bd a5 52 ff 3d b9 e5 83 be 1e a1 5c 3d
       -0.117208585 0.12466935 -0.25761202 0.05386459
000270 c0 40 18 3d d3 68 0f 3c 21 77 f4 3d e2 e8 a3 bd
       0.037171125 0.008753019 0.119367845 -0.08003403
000280 07 0f 92 be e4 da e6 3d 78 a1 a1 bd 95 4c e8 bd
       -0.2852709 0.11272219 -0.07892126 -0.11342732
000290 bd b9 9d 3d f1 2b 4a 3e 03 91 13 3d 91 f0 d4 bc
       0.077014424 0.19743325 0.036026966 -0.025993617
0002a0 e2 87 2b bd 77 52 09 be 3e f6 b4 bd cd be 0e be
       -0.041877635 -0.13410364 -0.088360295 -0.13939972
0002b0 b0 58 8d bd 0b 61 92 3d ab 35 64 be 9e 81 31 be
       -0.069016814 0.07147416 -0.22286098 -0.17334601
0002c0 37 00 43 be c1 f1 ab bc 0f 4a 8d bd e0 a5 24 3e
       -0.1904305 -0.0209893 -0.06898891 0.16078901
0002d0 bb 02 3a be 43 ff f2 bc 34 99 ba be cf 03 15 3e
       -0.18165104 -0.029662734 -0.3644501 0.14552234
0002e0 cd 95 de 3d 61 db b4 3d a6 20 80 3d da 48 af 3d
       0.10868416 0.08830906 0.06256227 0.08558817
0002f0 88 75 13 be b8 ee 46 bd bc fc d8 3c 2d dd ce bc
       -0.14400303 -0.048567504 0.0264877 -0.02525195
000300 f9 c9 53 be 25 d6 e7 be 82 b0 83 be 5c ea 4d 3c
       -0.20682515 -0.45280567 -0.25720602 0.012568083
000310 29 99 01 be 23 78 88 be b1 a7 d1 be a5 ba 9a be
       -0.12656082 -0.26654157 -0.4094825 -0.30220523
000320 b6 95 88 bd cb 7e f1 bc 28 5a 38 be a6 6e a9 bd
       -0.0666918 -0.029479405 -0.18003142 -0.08273058
000330 77 50 2e be fa 26 04 bb cf ed 5c bd 6b bf 84 3b
       -0.17022882 -0.0020164833 -0.05393773 0.004051139
000340 6c 3c 4f 3e 1d 0e 09 3e bc 29 9c 3d ce 76 a6 3d
       0.20237893 0.1338429 0.07625148 0.08128129
000350 09 eb 48 bc 73 cd 80 3e 71 5d 25 3e dd d2 db bc
       -0.012263068 0.25156745 0.16148926 -0.026833946
000360 76 fc d5 3b fa 97 d2 3d 89 d8 fd 3d 81 66 5b 3d
       0.00653034 0.102828935 0.123948164 0.053564552
000370 fe 77 94 3e 39 63 67 3e 5d bb dc bc 63 2a f6 bd
       0.28997797 0.22596444 -0.02694481 -0.120198034
000380 67 e3 97 be a7 0a 90 be 20 85 bb be 44 cf 31 bd
       -0.29665682 -0.28133127 -0.36625004 -0.043410555
000390 2b 00 0e be 2c cc 1d bf 0b ae dd be c9 da 8c be
       -0.13867252 -0.61639667 -0.43296847 -0.2751067
0003a0 79 64 23 be 00 92 7e be 4a 17 e3 bd 88 02 7d be
       -0.15956296 -0.24860382 -0.110884264 -0.24707997
0003b0 0f dc 4c bc 5e f3 49 bd a3 f8 42 3e e7 45 8a be
       -0.012503638 -0.04930436 0.1904016 -0.27006456
0003c0 a5 42 c0 3d b6 1a 10 3e 46 34 bb 39 59 6c 7a 3c
       0.093877114 0.1407269 0.00035706366 0.015284621
0003d0 c7 fe 82 bd 46 ec 70 3e 49 ee 77 be 4d ac 12 3d
       -0.06396251 0.23527631 -0.24211992 0.03580885
0003e0 01 03 a8 bd 2f 56 58 3d 1d d2 c9 be f8 94 48 3d
       -0.08203698 0.052816566 -0.39418116 0.048970193
0003f0 19 02 b6 bd ea 02 15 3d ac 99 83 bd 46 f9 10 be
       -0.08887119 0.036379732 -0.06425795 -0.1415759

fc1.bias f4 [128]
000000 b5 58 be 3e 9e 5a 44 bc 2c c3 69 bd 13 00 03 be
       0.37177053 -0.011984495 -0.057070896 -0.12792997
000010 c2 f5 28 be a6 2b cb bd a0 ab 4b 3d 72 13 1d be
       -0.16499999 -0.09920435 0.04972422 -0.15339449
000020 8b 1d bb bc 43 4a 5d bd 18 62 92 3e 66 7e 34 bd
       -0.022841236 -0.0540259 0.28590465 -0.044065855
000030 f5 99 05 be b2 31 67 be 74 9d 0e 3e 9e df 3d bd
       -0.13047011 -0.22577551 0.13927251 -0.046355836
000040 21 8b 90 3d 74 6c 87 3d 1e e0 2d bb 0e 35 10 be
       0.07057787 0.06612483 -0.002653129 -0.14082739
000050 b7 df 01 bb 8d 48 85 be 6d 07 0c bd 3a b1 19 be
       -0.0019817182 -0.26031914 -0.03418677 -0.15009013
000060 fa 93 7e 3d 50 f4 42 bd cb ae 60 bd 5d 9e 8a bd
       0.06215284 -0.047596276 -0.054854196 -0.06768487
000070 66 d7 25 3e 16 23 7a bd ee e0 20 bd cc 50 80 3d
       0.16195449 -0.061068617 -0.03927701 0.06265411
000080 b0 14 38 bd 27 d3 50 3c 43 6c 3a be 97 2d 9a 3e
       -0.044941604 0.012745655 -0.18205361 0.30112907
000090 b0 ee 46 3d cb ef be bb 4e 69 83 ba 43 89 ec bc
       0.048567474 -0.0058269254 -0.001002589 -0.028874045
0000a0 98 1a bd bd 11 46 2a bd 02 16 80 bb ad 45 09 be
       -0.09233588 -0.041570727 -0.0039088735 -0.13405485
0000b0 ec 49 39 be 57 ef 72 3e 61 0d 16 3c f8 22 9d bd
       -0.18094605 0.23724113 0.009158463 -0.076726854
0000c0 8a e4 3d be cd 31 5e be a2 2d 95 3d a9 e9 b5 3d
       -0.18544212 -0.21698685 0.072840944 0.08882458
0000d0 c7 dc 8f 3d 25 49 00 be c2 de 07 3e 8e 6c 91 bc
       0.07024532 -0.12527902 0.13268569 -0.017751958
0000e0 a5 58 df bc 49 97 5a b9 9c a0 b1 bd bd b3 2d bd
       -0.027263949 -0.00020846458 -0.08673212 -0.04240774
0000f0 13 bc 89 bd d5 6f e7 bd 5e c8 07 be c7 66 39 bb
       -0.067253254 -0.11300627 -0.13260028 -0.002829002
000100 32 c6 68 bd 12 fe 73 3b c7 cb c8 3e 97 3e eb bd
       -0.05682964 0.0037230295 0.3921797 -0.114865474
000110 41 49 23 3e 25 cf 11 be 77 0d b4 3d ce f2 be 3d
       0.15945913 -0.14239176 0.08791631 0.09323655
000120 2c a0 a9 bd 20 3f 2a 3c 28 0d b5 3c a3 02 0b bd
       -0.082825035 0.010391027 0.022101 -0.03393806
000130 ab ef 21 bd 8c 59 cc bd 04 c4 5e bd 9d 88 6e bc
       -0.039535206 -0.09978017 -0.054386154 -0.014558938
000140 b1 e4 45 be 02 c2 6b be 23 b7 45 be 6b e5 1d 3e
       -0.1932552 -0.23023227 -0.19308142 0.15419547
000150 f4 cd d5 bd 7a c8 01 be 2d e8 9b bd ad 4b 1a bd
       -0.10439673 -0.12674132 -0.076126434 -0.037669826
000160 02 81 d7 bd 01 51 f5 bd 82 0a ee bd 5c ed b0 bd
       -0.10522653 -0.11978341 -0.11623098 -0.08639023
000170 07 59 a3 bd 1c 47 88 bd 2b b0 35 3e 0d 9c 31 be
       -0.07975965 -0.06654188 0.17742984 -0.17344685
000180 8a 6a 63 3d 9e 07 ba bd 92 bd 89 bc 81 ef 1d be
       0.055521525 -0.09083484 -0.016814027 -0.15423395
000190 b5 f4 56 be ee c0 1f bd fb 0a cf bd a2 7b 3f be
       -0.20991786 -0.03900235 -0.10109516 -0.18699506
0001a0 ad 83 f9 bd d6 77 fb bc 42 6e 58 be f1 2b 82 3d
       -0.12183318 -0.03069679 -0.2113581 0.063560374
0001b0 69 15 15 3d 25 95 a9 bd 8b c4 4f be 3e f0 5d bd
       0.03639737 -0.082804 -0.20289819 -0.05418419
0001c0 03 71 9b 3e 42 d0 10 bd 4d 24 5d bd 90 86 21 3d
       0.3035966 -0.03535486 -0.053989697 0.03943497
0001d0 6c 95 38 3d bb f1 7c 3d 97 9a 0f bd f6 09 e2 bd
       0.045064375 0.06175397 -0.035059538 -0.11037056
0001e0 7e af 86 be 69 14 57 be a7 89 c3 bd 60 cd 95 bd
       -0.26305765 -0.2100388 -0.095477395 -0.07314563
0001f0 11 13 59 bd 94 c1 1d 3e c8 2b 40 be 53 68 03 be
       -0.0529967 0.15405875 -0.18766701 -0.12832765
